Models/Pico-Friendly L-ENet/L-ENet_SGM_Eigen.tflite (tflite, 48568 bytes, 17 tensors)

model_2/conv2d_70/Conv2D i1 [1, 1, 1, 12] scale=0.0032076777 zero_point=0
0	0x81	-0.40737507
1	0xb5	-0.24057584
2	0xf1	-0.048115168
3	0x1d	0.09302265
4	0xce	-0.16038388
5	0xd2	-0.14755318
6	0xf6	-0.032076776
7	0xf7	-0.0288691
8	0xde	-0.10906104
9	0x19	0.08019194
10	0xce	-0.16038388
11	0x13	0.060945876

model_2/conv2d_69/Conv2D i1 [12, 3, 3, 22]
0	0xaf	-81
1	0xee	-18
2	0xfb	-5
3	0xb2	-78
4	0xbe	-66
5	0xc8	-56
6	0xf5	-11
7	0x34	52
8	0x12	18
9	0xfd	-3
10	0xfb	-5
11	0xed	-19
12	0xf5	-11
13	0xd4	-44
14	0xa1	-95
15	0x22	34
16	0xfd	-3
17	0xeb	-21
18	0x00	0
19	0xcf	-49
20	0x13	19
21	0xb1	-79
22	0x0d	13
23	0xbb	-69
24	0x21	33
25	0xa0	-96
26	0xd2	-46
27	0x14	20
28	0xae	-82
29	0xe5	-27
30	0xf2	-14
31	0x35	53
32	0xcf	-49
33	0xfe	-2
34	0xd9	-39
35	0x10	16
36	0xd7	-41
37	0x5b	91
38	0xa7	-89
39	0x28	40
40	0x4b	75
41	0xfb	-5
42	0xf3	-13
43	0xa9	-87
44	0x0f	15
45	0xc7	-57
46	0xe1	-31
47	0xb9	-71
48	0x0b	11
49	0xfc	-4
50	0xbd	-67
51	0xcc	-52
52	0x09	9
53	0xcf	-49
54	0xf5	-11
55	0xe3	-29
56	0x37	55
57	0x17	23
58	0x1d	29
59	0x08	8
60	0xbe	-66
61	0x36	54
62	0x5e	94
63	0xcd	-51
64	0x06	6
65	0xcf	-49
66	0xf4	-12
67	0x0f	15
68	0x29	41
69	0x04	4
70	0xd6	-42
71	0x35	53
72	0xec	-20
73	0xd4	-44
74	0x0f	15
75	0xfe	-2
76	0x28	40
77	0xce	-50
78	0x2f	47
79	0xe9	-23
80	0xb4	-76
81	0x75	117
82	0x99	-103
83	0x6a	106
84	0x60	96
85	0xb0	-80
86	0x49	73
87	0xed	-19
88	0xb4	-76
89	0xdf	-33
90	0xfe	-2
91	0xa0	-96
92	0x0d	13
93	0xc1	-63
94	0x1f	31
95	0xca	-54
96	0xf3	-13
97	0x1e	30
98	0xbc	-68
99	0x30	48
100	0x2c	44
101	0x13	19
102	0xa9	-87
103	0x5c	92
104	0x9d	-99
105	0xe9	-23
106	0x4c	76
107	0xd1	-47
108	0x01	1
109	0x8a	-118
110	0x26	38
111	0xc8	-56
112	0x1a	26
113	0xe6	-26
114	0xf4	-12
115	0x0c	12
116	0xec	-20
117	0xd2	-46
118	0xed	-19
119	0x2f	47
120	0xf5	-11
121	0xfa	-6
122	0x48	72
123	0x05	5
124	0xe7	-25
125	0x6c	108
126	0x10	16
127	0x13	19
128	0x36	54
129	0xe6	-26
130	0x45	69
131	0x9a	-102
132	0x16	22
133	0x01	1
134	0xc8	-56
135	0x09	9
136	0xe0	-32
137	0xcf	-49
138	0xc9	-55
139	0x01	1
140	0xad	-83
141	0xe7	-25
142	0xef	-17
143	0xca	-54
144	0x09	9
145	0xf4	-12
146	0xf8	-8
147	0x13	19
148	0xa3	-93
149	0xea	-22
150	0x7f	127
151	0x13	19
152	0xd1	-47
153	0xeb	-21
154	0xb7	-73
155	0x03	3
156	0xad	-83
157	0xa3	-93
158	0xca	-54
159	0xdf	-33
160	0x13	19
161	0xd8	-40
162	0xd6	-42
163	0xd6	-42
164	0xc9	-55
165	0xd8	-40
166	0x0f	15
167	0x10	16
168	0x9b	-101
169	0x29	41
170	0xd2	-46
171	0x59	89
172	0x04	4
173	0xc9	-55
174	0x20	32
175	0x87	-121
176	0xcf	-49
177	0xa8	-88
178	0x07	7
179	0xb2	-78
180	0xa2	-94
181	0xf9	-7
182	0x3c	60
183	0xed	-19
184	0xac	-84
185	0x04	4
186	0xd1	-47
187	0xe0	-32
188	0x31	49
189	0x12	18
190	0xc6	-58
191	0xf9	-7
192	0xf0	-16
193	0x0a	10
194	0x72	114
195	0xec	-20
196	0x36	54
197	0xbf	-65
198	0x08	8
199	0xf2	-14
200	0xd6	-42
201	0x03	3
202	0xf9	-7
203	0xcf	-49
204	0xda	-38
205	0xb8	-72
206	0x04	4
207	0x01	1
208	0x01	1
209	0xfc	-4
210	0xec	-20
211	0xfe	-2
212	0xee	-18
213	0x07	7
214	0xff	-1
215	0x01	1
216	0x04	4
217	0x09	9
218	0xff	-1
219	0xe5	-27
220	0xf2	-14
221	0x12	18
222	0x16	22
223	0x03	3
224	0x0f	15
225	0xfd	-3
226	0x06	6
227	0x8e	-114
228	0xc9	-55
229	0xf6	-10
230	0x0d	13
231	0x0a	10
232	0x1c	28
233	0xf2	-14
234	0x03	3
235	0xf6	-10
236	0x18	24
237	0xfa	-6
238	0xfa	-6
239	0xf5	-11
240	0xe2	-30
241	0xf6	-10
242	0xe1	-31
243	0xe8	-24
244	0xf1	-15
245	0x06	6
246	0xf0	-16
247	0xfa	-6
248	0xf6	-10
249	0xfc	-4
250	0xaa	-86
251	0xd2	-46
252	0x02	2
253	0xf9	-7
254	0xfa	-6
255	0x00	0

model_2/conv2d_68/Conv2D i1 [12, 3, 3, 32]
0	0x01	1
1	0xf8	-8
2	0x15	21
3	0x0d	13
4	0xfe	-2
5	0x03	3
6	0xf7	-9
7	0x0a	10
8	0x02	2
9	0x00	0
10	0x16	22
11	0xf7	-9
12	0xf9	-7
13	0xf8	-8
14	0x11	17
15	0x06	6
16	0x0d	13
17	0xff	-1
18	0x01	1
19	0x0f	15
20	0x01	1
21	0xfd	-3
22	0xfb	-5
23	0x81	-127
24	0xf9	-7
25	0x07	7
26	0xd6	-42
27	0x0e	14
28	0xf7	-9
29	0xf6	-10
30	0x05	5
31	0x0e	14
32	0x00	0
33	0x07	7
34	0x0c	12
35	0x07	7
36	0xfd	-3
37	0xfd	-3
38	0x09	9
39	0xe9	-23
40	0x07	7
41	0x05	5
42	0xfe	-2
43	0xff	-1
44	0xf7	-9
45	0xfe	-2
46	0xfa	-6
47	0x01	1
48	0x00	0
49	0xfb	-5
50	0xfc	-4
51	0x01	1
52	0x00	0
53	0x01	1
54	0xff	-1
55	0x25	37
56	0x04	4
57	0x05	5
58	0xef	-17
59	0x0c	12
60	0xf6	-10
61	0x00	0
62	0x0c	12
63	0x0b	11
64	0xfe	-2
65	0xf7	-9
66	0x02	2
67	0x01	1
68	0x02	2
69	0x06	6
70	0xf5	-11
71	0xf8	-8
72	0xfa	-6
73	0xff	-1
74	0x06	6
75	0xfb	-5
76	0x05	5
77	0xed	-19
78	0xf7	-9
79	0x02	2
80	0x04	4
81	0xfc	-4
82	0xf1	-15
83	0x03	3
84	0xf4	-12
85	0xf9	-7
86	0xff	-1
87	0x0b	11
88	0x09	9
89	0x00	0
90	0xe8	-24
91	0x0c	12
92	0xf2	-14
93	0xef	-17
94	0xfc	-4
95	0x07	7
96	0xff	-1
97	0xf9	-7
98	0xf7	-9
99	0xfc	-4
100	0xf5	-11
101	0xfd	-3
102	0xf0	-16
103	0xef	-17
104	0xfd	-3
105	0x00	0
106	0xfc	-4
107	0x05	5
108	0x04	4
109	0xfe	-2
110	0xfa	-6
111	0xfd	-3
112	0x0d	13
113	0x09	9
114	0xf1	-15
115	0xd6	-42
116	0x07	7
117	0x00	0
118	0xf6	-10
119	0xd1	-47
120	0xf8	-8
121	0xfd	-3
122	0x19	25
123	0x02	2
124	0x07	7
125	0xee	-18
126	0x05	5
127	0x02	2
128	0x00	0
129	0x05	5
130	0x05	5
131	0xf7	-9
132	0xfb	-5
133	0xfd	-3
134	0xf7	-9
135	0xfd	-3
136	0x07	7
137	0xfe	-2
138	0xf7	-9
139	0x0b	11
140	0x0b	11
141	0x02	2
142	0x07	7
143	0x10	16
144	0x00	0
145	0x08	8
146	0x05	5
147	0xe8	-24
148	0xff	-1
149	0x00	0
150	0xfc	-4
151	0xe4	-28
152	0xfb	-5
153	0x02	2
154	0x1a	26
155	0x05	5
156	0x11	17
157	0xfc	-4
158	0x0e	14
159	0x0a	10
160	0xfc	-4
161	0x00	0
162	0xf7	-9
163	0x02	2
164	0xfd	-3
165	0x08	8
166	0xda	-38
167	0xfd	-3
168	0xfa	-6
169	0x01	1
170	0xf7	-9
171	0xfd	-3
172	0xf7	-9
173	0x10	16
174	0xe8	-24
175	0xf7	-9
176	0x0a	10
177	0x04	4
178	0x08	8
179	0xfe	-2
180	0xfe	-2
181	0xff	-1
182	0xf0	-16
183	0xe8	-24
184	0xfe	-2
185	0x06	6
186	0x16	22
187	0x0e	14
188	0x0f	15
189	0xe8	-24
190	0x07	7
191	0x03	3
192	0x02	2
193	0x01	1
194	0x12	18
195	0xef	-17
196	0xf9	-7
197	0xf0	-16
198	0x0b	11
199	0x18	24
200	0x06	6
201	0xfd	-3
202	0x0d	13
203	0x09	9
204	0xed	-19
205	0xef	-17
206	0xf9	-7
207	0xfb	-5
208	0x0a	10
209	0xeb	-21
210	0xf4	-12
211	0xed	-19
212	0x2b	43
213	0x00	0
214	0x0e	14
215	0x07	7
216	0xf2	-14
217	0x06	6
218	0x0e	14
219	0xf3	-13
220	0x05	5
221	0xe8	-24
222	0x11	17
223	0xed	-19
224	0x07	7
225	0x00	0
226	0xfd	-3
227	0x08	8
228	0x10	16
229	0xfc	-4
230	0xe2	-30
231	0xf8	-8
232	0x07	7
233	0x01	1
234	0x0a	10
235	0x01	1
236	0x03	3
237	0xf6	-10
238	0x05	5
239	0x00	0
240	0x02	2
241	0xf5	-11
242	0x02	2
243	0xf1	-15
244	0x0a	10
245	0x00	0
246	0x28	40
247	0xf1	-15
248	0xe8	-24
249	0x03	3
250	0x20	32
251	0x01	1
252	0xfe	-2
253	0x0d	13
254	0x09	9
255	0xff	-1

model_2/conv2d_67/Conv2D i1 [16, 3, 3, 48]
0	0x0a	10
1	0x0e	14
2	0x26	38
3	0x04	4
4	0x0a	10
5	0xf9	-7
6	0x0c	12
7	0xf5	-11
8	0x23	35
9	0x07	7
10	0x17	23
11	0xf7	-9
12	0xe8	-24
13	0x05	5
14	0x18	24
15	0xb2	-78
16	0xf3	-13
17	0xe0	-32
18	0x1d	29
19	0x40	64
20	0xd9	-39
21	0x25	37
22	0x24	36
23	0x0f	15
24	0xea	-22
25	0x4a	74
26	0x1b	27
27	0x14	20
28	0xf8	-8
29	0x20	32
30	0x04	4
31	0xf3	-13
32	0x12	18
33	0x02	2
34	0x10	16
35	0xd2	-46
36	0xdb	-37
37	0xe9	-23
38	0x30	48
39	0x11	17
40	0xbe	-66
41	0x11	17
42	0xef	-17
43	0x1e	30
44	0xe4	-28
45	0xed	-19
46	0xfe	-2
47	0x1e	30
48	0x0a	10
49	0x0a	10
50	0xfa	-6
51	0xe5	-27
52	0x03	3
53	0x03	3
54	0xf1	-15
55	0x0e	14
56	0x10	16
57	0xf1	-15
58	0x02	2
59	0x3e	62
60	0x12	18
61	0x02	2
62	0xff	-1
63	0x2e	46
64	0x11	17
65	0x0a	10
66	0x04	4
67	0xef	-17
68	0x1c	28
69	0xf9	-7
70	0xf9	-7
71	0x08	8
72	0xff	-1
73	0x08	8
74	0xd2	-46
75	0x13	19
76	0xf2	-14
77	0xf2	-14
78	0x0a	10
79	0x0f	15
80	0xfc	-4
81	0x13	19
82	0x07	7
83	0xde	-34
84	0xf3	-13
85	0xf2	-14
86	0x1a	26
87	0x05	5
88	0xf7	-9
89	0x3c	60
90	0xf9	-7
91	0xda	-38
92	0xfc	-4
93	0xe7	-25
94	0xfe	-2
95	0xf1	-15
96	0xf8	-8
97	0xf8	-8
98	0x27	39
99	0xf7	-9
100	0x22	34
101	0x0b	11
102	0xdb	-37
103	0x0c	12
104	0xf9	-7
105	0xff	-1
106	0x41	65
107	0xf9	-7
108	0xfe	-2
109	0xfe	-2
110	0x1b	27
111	0xe3	-29
112	0xfb	-5
113	0xfa	-6
114	0xf8	-8
115	0x29	41
116	0xe2	-30
117	0x18	24
118	0x52	82
119	0x1a	26
120	0xf9	-7
121	0x15	21
122	0x2c	44
123	0xf7	-9
124	0xd2	-46
125	0x19	25
126	0x02	2
127	0x0a	10
128	0xe6	-26
129	0x02	2
130	0xb1	-79
131	0xf3	-13
132	0xb9	-71
133	0x08	8
134	0x2d	45
135	0x10	16
136	0xdf	-33
137	0x1a	26
138	0xf7	-9
139	0x9f	-97
140	0x0c	12
141	0xe8	-24
142	0x29	41
143	0xdf	-33
144	0xe5	-27
145	0xf0	-16
146	0x1f	31
147	0x2d	45
148	0x11	17
149	0xf5	-11
150	0xf7	-9
151	0x06	6
152	0x2b	43
153	0x14	20
154	0xdb	-37
155	0xd0	-48
156	0x04	4
157	0x04	4
158	0x1c	28
159	0xf6	-10
160	0xf1	-15
161	0xe3	-29
162	0x18	24
163	0x0e	14
164	0xf9	-7
165	0xf5	-11
166	0x38	56
167	0xed	-19
168	0xec	-20
169	0x1d	29
170	0xf5	-11
171	0x23	35
172	0xe4	-28
173	0xf7	-9
174	0xe6	-26
175	0x0a	10
176	0x1e	30
177	0x01	1
178	0x22	34
179	0x0e	14
180	0xe5	-27
181	0x18	24
182	0xe2	-30
183	0x0b	11
184	0xc7	-57
185	0x38	56
186	0xe6	-26
187	0x10	16
188	0x26	38
189	0xea	-22
190	0x22	34
191	0x10	16
192	0xff	-1
193	0xea	-22
194	0x0e	14
195	0x2b	43
196	0x0b	11
197	0xfc	-4
198	0xff	-1
199	0x0f	15
200	0xe5	-27
201	0xfa	-6
202	0x17	23
203	0x3b	59
204	0xdf	-33
205	0xf6	-10
206	0xfe	-2
207	0x05	5
208	0x0b	11
209	0xf2	-14
210	0xfa	-6
211	0xe7	-25
212	0xff	-1
213	0x39	57
214	0x1f	31
215	0xeb	-21
216	0xfc	-4
217	0xfb	-5
218	0xce	-50
219	0xf3	-13
220	0xfc	-4
221	0xe3	-29
222	0x0c	12
223	0x10	16
224	0x19	25
225	0x00	0
226	0xf2	-14
227	0xfb	-5
228	0x05	5
229	0x0c	12
230	0xda	-38
231	0x14	20
232	0xf8	-8
233	0x4a	74
234	0xff	-1
235	0x20	32
236	0x12	18
237	0xfb	-5
238	0x1d	29
239	0x15	21
240	0x04	4
241	0xf1	-15
242	0x05	5
243	0x18	24
244	0x2a	42
245	0xf9	-7
246	0x1b	27
247	0x13	19
248	0xf2	-14
249	0xe9	-23
250	0x20	32
251	0xb8	-72
252	0x03	3
253	0xfa	-6
254	0x0f	15
255	0x02	2

model_2/conv2d_66/Conv2D i1 [24, 3, 3, 32]
0	0xed	-19
1	0x36	54
2	0x1b	27
3	0xf4	-12
4	0x3a	58
5	0xe4	-28
6	0xcf	-49
7	0x0f	15
8	0xe3	-29
9	0x31	49
10	0xfb	-5
11	0x02	2
12	0xed	-19
13	0xc3	-61
14	0x02	2
15	0xcd	-51
16	0x21	33
17	0x24	36
18	0x2f	47
19	0x20	32
20	0x2b	43
21	0xf8	-8
22	0xe2	-30
23	0x2d	45
24	0x89	-119
25	0x93	-109
26	0xfa	-6
27	0x6c	108
28	0x49	73
29	0x78	120
30	0x33	51
31	0x1b	27
32	0xe3	-29
33	0xff	-1
34	0x09	9
35	0xe2	-30
36	0x13	19
37	0xf3	-13
38	0xdf	-33
39	0x17	23
40	0xe0	-32
41	0x07	7
42	0x1a	26
43	0xc7	-57
44	0xf3	-13
45	0x9f	-97
46	0x12	18
47	0x33	51
48	0x01	1
49	0x2d	45
50	0x05	5
51	0xfe	-2
52	0x02	2
53	0x07	7
54	0x09	9
55	0xc9	-55
56	0xc8	-56
57	0xf7	-9
58	0xdb	-37
59	0x05	5
60	0x1e	30
61	0x33	51
62	0xff	-1
63	0x2a	42
64	0xc7	-57
65	0x20	32
66	0xf1	-15
67	0xef	-17
68	0x27	39
69	0xf4	-12
70	0xff	-1
71	0x35	53
72	0xe5	-27
73	0x00	0
74	0x17	23
75	0x0d	13
76	0x10	16
77	0xd7	-41
78	0xb3	-77
79	0x1f	31
80	0x00	0
81	0x26	38
82	0x22	34
83	0x47	71
84	0x0a	10
85	0x26	38
86	0xee	-18
87	0x12	18
88	0x7f	127
89	0x07	7
90	0xa8	-88
91	0x29	41
92	0x20	32
93	0x40	64
94	0xec	-20
95	0x25	37
96	0xf7	-9
97	0xc6	-58
98	0xe7	-25
99	0x2d	45
100	0xc2	-62
101	0x24	36
102	0xc8	-56
103	0x16	22
104	0xd8	-40
105	0xf6	-10
106	0xeb	-21
107	0x22	34
108	0xfd	-3
109	0xf1	-15
110	0xb1	-79
111	0x08	8
112	0x0c	12
113	0xec	-20
114	0xdc	-36
115	0x3c	60
116	0xfd	-3
117	0x14	20
118	0x0b	11
119	0x06	6
120	0x35	53
121	0x06	6
122	0xff	-1
123	0xb2	-78
124	0x27	39
125	0xf3	-13
126	0xf8	-8
127	0x03	3
128	0x08	8
129	0x06	6
130	0xfa	-6
131	0x20	32
132	0xeb	-21
133	0x0e	14
134	0xfd	-3
135	0xef	-17
136	0x0b	11
137	0x0d	13
138	0xe1	-31
139	0x27	39
140	0x1b	27
141	0x15	21
142	0xdf	-33
143	0xd4	-44
144	0xdb	-37
145	0x0d	13
146	0xe6	-26
147	0x04	4
148	0xcc	-52
149	0xf9	-7
150	0x07	7
151	0xb7	-73
152	0xef	-17
153	0x14	20
154	0x13	19
155	0xec	-20
156	0xf5	-11
157	0x12	18
158	0xfb	-5
159	0xfd	-3
160	0xe3	-29
161	0x1d	29
162	0xf8	-8
163	0xd9	-39
164	0xfc	-4
165	0xca	-54
166	0xc6	-58
167	0x03	3
168	0x11	17
169	0xe7	-25
170	0x05	5
171	0x2f	47
172	0xce	-50
173	0x07	7
174	0x16	22
175	0xfe	-2
176	0xc5	-59
177	0xc9	-55
178	0xe9	-23
179	0x0a	10
180	0xc2	-62
181	0x03	3
182	0x02	2
183	0x39	57
184	0xe1	-31
185	0x1a	26
186	0xe1	-31
187	0xe1	-31
188	0x16	22
189	0xfd	-3
190	0x2d	45
191	0xf6	-10
192	0x61	97
193	0x31	49
194	0x21	33
195	0xe3	-29
196	0x25	37
197	0x0c	12
198	0x0b	11
199	0xb1	-79
200	0xda	-38
201	0x0f	15
202	0xdf	-33
203	0xfd	-3
204	0x10	16
205	0xe0	-32
206	0xa8	-88
207	0xf6	-10
208	0xc1	-63
209	0x17	23
210	0x15	21
211	0xba	-70
212	0xf4	-12
213	0xdb	-37
214	0xca	-54
215	0xdc	-36
216	0x20	32
217	0x1a	26
218	0xf7	-9
219	0x14	20
220	0x39	57
221	0x17	23
222	0x3a	58
223	0x00	0
224	0xe7	-25
225	0xe0	-32
226	0xe6	-26
227	0xea	-22
228	0x07	7
229	0x04	4
230	0x08	8
231	0xcb	-53
232	0x0e	14
233	0x07	7
234	0x04	4
235	0xfd	-3
236	0x1a	26
237	0xf3	-13
238	0xc8	-56
239	0xe1	-31
240	0x1d	29
241	0x15	21
242	0x0e	14
243	0x22	34
244	0x34	52
245	0xfb	-5
246	0x0c	12
247	0xeb	-21
248	0xec	-20
249	0xdc	-36
250	0xf8	-8
251	0xf9	-7
252	0x06	6
253	0x15	21
254	0x0b	11
255	0xea	-22

model_2/conv2d_65/Conv2D i1 [32, 1, 1, 32]
0	0x19	25
1	0x1f	31
2	0x81	-127
3	0x1d	29
4	0xf6	-10
5	0xa3	-93
6	0x8d	-115
7	0xaa	-86
8	0x29	41
9	0x2b	43
10	0x4a	74
11	0x56	86
12	0xf6	-10
13	0x13	19
14	0x41	65
15	0xee	-18
16	0xbe	-66
17	0xf3	-13
18	0xcd	-51
19	0xd0	-48
20	0xea	-22
21	0xba	-70
22	0x70	112
23	0xeb	-21
24	0x17	23
25	0xe6	-26
26	0x0c	12
27	0x25	37
28	0xb7	-73
29	0x2b	43
30	0x3c	60
31	0x2b	43
32	0x18	24
33	0xb8	-72
34	0x2e	46
35	0x08	8
36	0xf9	-7
37	0xd5	-43
38	0x17	23
39	0xef	-17
40	0xe7	-25
41	0x81	-127
42	0x19	25
43	0x02	2
44	0xb4	-76
45	0x19	25
46	0xf3	-13
47	0xec	-20
48	0xda	-38
49	0xfe	-2
50	0x33	51
51	0xe8	-24
52	0xf6	-10
53	0xfe	-2
54	0x4a	74
55	0x9f	-97
56	0xce	-50
57	0x15	21
58	0xe6	-26
59	0xbb	-69
60	0x2c	44
61	0xee	-18
62	0x2a	42
63	0x55	85
64	0xdb	-37
65	0x39	57
66	0x04	4
67	0x3d	61
68	0x1e	30
69	0xf9	-7
70	0xeb	-21
71	0xf6	-10
72	0xdd	-35
73	0xce	-50
74	0x23	35
75	0xac	-84
76	0x1c	28
77	0x7f	127
78	0x1f	31
79	0xd5	-43
80	0x06	6
81	0x02	2
82	0x09	9
83	0x0d	13
84	0x09	9
85	0xed	-19
86	0x0f	15
87	0xfb	-5
88	0x0a	10
89	0x31	49
90	0x0e	14
91	0x32	50
92	0xc7	-57
93	0xef	-17
94	0xf9	-7
95	0xd2	-46
96	0xea	-22
97	0xe9	-23
98	0x17	23
99	0x22	34
100	0x20	32
101	0xfa	-6
102	0x04	4
103	0xf6	-10
104	0xbf	-65
105	0xfe	-2
106	0xf7	-9
107	0x13	19
108	0xcc	-52
109	0xce	-50
110	0x2c	44
111	0x35	53
112	0xe8	-24
113	0xce	-50
114	0xdb	-37
115	0x01	1
116	0xd7	-41
117	0x0e	14
118	0x81	-127
119	0x19	25
120	0xdf	-33
121	0x20	32
122	0xfd	-3
123	0x43	67
124	0xf2	-14
125	0xec	-20
126	0x02	2
127	0x1c	28
128	0x1c	28
129	0x4f	79
130	0x02	2
131	0x06	6
132	0xf1	-15
133	0xa3	-93
134	0xad	-83
135	0xa4	-92
136	0xc7	-57
137	0xb8	-72
138	0xb9	-71
139	0xcc	-52
140	0xeb	-21
141	0xdc	-36
142	0x1a	26
143	0x13	19
144	0x21	33
145	0xe7	-25
146	0x04	4
147	0x44	68
148	0x3a	58
149	0xc7	-57
150	0xf6	-10
151	0x98	-104
152	0x8c	-116
153	0x81	-127
154	0x29	41
155	0xd9	-39
156	0x08	8
157	0xcf	-49
158	0xec	-20
159	0x13	19
160	0x56	86
161	0x23	35
162	0x6d	109
163	0x4d	77
164	0xc2	-62
165	0x52	82
166	0xcd	-51
167	0x0c	12
168	0xcf	-49
169	0x17	23
170	0xa4	-92
171	0x0a	10
172	0x0d	13
173	0x8e	-114
174	0x28	40
175	0x7f	127
176	0x3f	63
177	0x52	82
178	0x0e	14
179	0x49	73
180	0xcb	-53
181	0x1f	31
182	0x5a	90
183	0x21	33
184	0xd6	-42
185	0x5a	90
186	0x14	20
187	0x10	16
188	0xe5	-27
189	0x51	81
190	0xd1	-47
191	0xf6	-10
192	0x57	87
193	0xa0	-96
194	0x1d	29
195	0x0a	10
196	0xea	-22
197	0xf1	-15
198	0xf2	-14
199	0x81	-127
200	0xe7	-25
201	0x20	32
202	0xe3	-29
203	0xb0	-80
204	0xea	-22
205	0x2b	43
206	0xee	-18
207	0xd0	-48
208	0x05	5
209	0xd3	-45
210	0x03	3
211	0x3b	59
212	0x21	33
213	0xe1	-31
214	0xee	-18
215	0xff	-1
216	0x1f	31
217	0xfd	-3
218	0x19	25
219	0x1d	29
220	0x45	69
221	0xf0	-16
222	0x59	89
223	0xe9	-23
224	0xf2	-14
225	0xe3	-29
226	0xe1	-31
227	0x28	40
228	0x4d	77
229	0xd6	-42
230	0x06	6
231	0x08	8
232	0xee	-18
233	0x47	71
234	0x02	2
235	0xdf	-33
236	0xde	-34
237	0x7f	127
238	0x0a	10
239	0x40	64
240	0xce	-50
241	0x22	34
242	0xcf	-49
243	0xcc	-52
244	0x99	-103
245	0x36	54
246	0x06	6
247	0xe1	-31
248	0xe5	-27
249	0x5c	92
250	0x0a	10
251	0x34	52
252	0xf5	-11
253	0x42	66
254	0x4d	77
255	0x00	0

model_2/batch_normalization_42/FusedBatchNormV3;model_2/depthwise_conv2d_21/depthwise;model_2/conv2d_65/Conv2D i1 [1, 3, 3, 32]
0	0x7d	125
1	0x83	-125
2	0xec	-20
3	0xe0	-32
4	0xdb	-37
5	0x7f	127
6	0x24	36
7	0xfc	-4
8	0x9e	-98
9	0x92	-110
10	0x18	24
11	0x6d	109
12	0x0e	14
13	0xfa	-6
14	0x2c	44
15	0xbb	-69
16	0x0d	13
17	0x81	-127
18	0x35	53
19	0x39	57
20	0x7f	127
21	0xf5	-11
22	0x7f	127
23	0xe7	-25
24	0x40	64
25	0x56	86
26	0xff	-1
27	0x07	7
28	0x08	8
29	0x78	120
30	0x13	19
31	0xb5	-75
32	0x20	32
33	0xca	-54
34	0xb3	-77
35	0x01	1
36	0xf3	-13
37	0x38	56
38	0x3a	58
39	0x0d	13
40	0x53	83
41	0xd4	-44
42	0x77	119
43	0xf9	-7
44	0xb6	-74
45	0x0e	14
46	0x0c	12
47	0xb6	-74
48	0xb7	-73
49	0xf2	-14
50	0x2f	47
51	0x08	8
52	0x59	89
53	0xe8	-24
54	0x5b	91
55	0xfa	-6
56	0x34	52
57	0x39	57
58	0xc3	-61
59	0xfc	-4
60	0x11	17
61	0x7f	127
62	0x17	23
63	0x81	-127
64	0x7f	127
65	0xe8	-24
66	0xc3	-61
67	0xf9	-7
68	0xba	-70
69	0x46	70
70	0x55	85
71	0x43	67
72	0xdc	-36
73	0xea	-22
74	0x1d	29
75	0x0f	15
76	0x92	-110
77	0xb3	-77
78	0x7f	127
79	0xea	-22
80	0x81	-127
81	0x47	71
82	0x35	53
83	0xd9	-39
84	0x51	81
85	0x81	-127
86	0x2c	44
87	0xf3	-13
88	0x31	49
89	0x0a	10
90	0x81	-127
91	0x1c	28
92	0xbf	-65
93	0x38	56
94	0x2e	46
95	0x97	-105
96	0x29	41
97	0x38	56
98	0xc9	-55
99	0xe9	-23
100	0x84	-124
101	0xd9	-39
102	0x81	-127
103	0x81	-127
104	0x88	-120
105	0x75	117
106	0x0e	14
107	0x23	35
108	0xea	-22
109	0x2c	44
110	0xfd	-3
111	0x17	23
112	0x45	69
113	0x2e	46
114	0xa7	-89
115	0x9e	-98
116	0x3e	62
117	0xee	-18
118	0x99	-103
119	0xdd	-35
120	0xbe	-66
121	0x4a	74
122	0x02	2
123	0x0a	10
124	0xb0	-80
125	0xa6	-90
126	0xdc	-36
127	0x2a	42
128	0x16	22
129	0x1d	29
130	0x7f	127
131	0xe5	-27
132	0x6f	111
133	0xb5	-75
134	0xb4	-76
135	0xe4	-28
136	0x3f	63
137	0xeb	-21
138	0x7f	127
139	0x02	2
140	0x2b	43
141	0xf2	-14
142	0xe0	-32
143	0x58	88
144	0x07	7
145	0x64	100
146	0x09	9
147	0x5e	94
148	0xf9	-7
149	0xdf	-33
150	0x04	4
151	0x42	66
152	0xd4	-44
153	0x81	-127
154	0xea	-22
155	0xf1	-15
156	0x2c	44
157	0x55	85
158	0xfd	-3
159	0x2d	45
160	0x15	21
161	0x15	21
162	0xbb	-69
163	0xee	-18
164	0x81	-127
165	0xbd	-67
166	0x44	68
167	0x86	-122
168	0x37	55
169	0xee	-18
170	0x45	69
171	0xb0	-80
172	0xd1	-47
173	0x81	-127
174	0x31	49
175	0x7f	127
176	0x14	20
177	0xf1	-15
178	0x1d	29
179	0x2c	44
180	0xca	-54
181	0x22	34
182	0xe0	-32
183	0xf0	-16
184	0x81	-127
185	0x8e	-114
186	0xf7	-9
187	0x22	34
188	0x23	35
189	0x09	9
190	0xe1	-31
191	0x2f	47
192	0xa2	-94
193	0xcf	-49
194	0xa7	-89
195	0x7f	127
196	0x05	5
197	0xee	-18
198	0xe9	-23
199	0x26	38
200	0x30	48
201	0x01	1
202	0x45	69
203	0x7f	127
204	0x7f	127
205	0xfb	-5
206	0x58	88
207	0x40	64
208	0x0d	13
209	0x13	19
210	0x7f	127
211	0x81	-127
212	0x93	-109
213	0x07	7
214	0x31	49
215	0xeb	-21
216	0xe0	-32
217	0x14	20
218	0x3e	62
219	0x9b	-101
220	0xf0	-16
221	0xb3	-77
222	0x81	-127
223	0x0b	11
224	0xc1	-63
225	0x81	-127
226	0xa0	-96
227	0x37	55
228	0x2d	45
229	0xe1	-31
230	0x36	54
231	0x1d	29
232	0x7f	127
233	0x21	33
234	0x24	36
235	0x1e	30
236	0x51	81
237	0xf8	-8
238	0x36	54
239	0xe2	-30
240	0x31	49
241	0x07	7
242	0x59	89
243	0x45	69
244	0xbd	-67
245	0xd0	-48
246	0xfc	-4
247	0x67	103
248	0x5e	94
249	0xe7	-25
250	0xd0	-48
251	0xa4	-92
252	0x0b	11
253	0x4c	76
254	0xde	-34
255	0x09	9

model_2/conv2d_63/Conv2D i1 [32, 1, 1, 24]
0	0x37	55
1	0x1d	29
2	0x38	56
3	0xd1	-47
4	0xdb	-37
5	0xfe	-2
6	0x2b	43
7	0xe4	-28
8	0x19	25
9	0xdb	-37
10	0xe8	-24
11	0x1b	27
12	0xe5	-27
13	0x03	3
14	0x1a	26
15	0x01	1
16	0xd8	-40
17	0xf9	-7
18	0xbe	-66
19	0xf7	-9
20	0x8d	-115
21	0xe2	-30
22	0x81	-127
23	0xeb	-21
24	0x13	19
25	0x13	19
26	0xce	-50
27	0xe7	-25
28	0xde	-34
29	0xc3	-61
30	0xbb	-69
31	0xcb	-53
32	0x13	19
33	0x45	69
34	0xdf	-33
35	0x5e	94
36	0x6e	110
37	0x55	85
38	0x7f	127
39	0xdd	-35
40	0xe7	-25
41	0xc6	-58
42	0x03	3
43	0x03	3
44	0x17	23
45	0x04	4
46	0x2d	45
47	0x50	80
48	0x07	7
49	0xfc	-4
50	0x27	39
51	0xdd	-35
52	0x89	-119
53	0xf6	-10
54	0x30	48
55	0xba	-70
56	0x31	49
57	0x2c	44
58	0x51	81
59	0x7f	127
60	0xed	-19
61	0x04	4
62	0xbd	-67
63	0xa1	-95
64	0x3a	58
65	0x09	9
66	0xd8	-40
67	0x10	16
68	0xf0	-16
69	0xe8	-24
70	0xc0	-64
71	0x36	54
72	0xc4	-60
73	0x17	23
74	0x09	9
75	0x03	3
76	0x03	3
77	0xb6	-74
78	0x04	4
79	0xb6	-74
80	0x15	21
81	0xc2	-62
82	0xdf	-33
83	0x27	39
84	0x11	17
85	0x05	5
86	0x14	20
87	0x27	39
88	0xfc	-4
89	0xfe	-2
90	0x08	8
91	0xf7	-9
92	0xdd	-35
93	0xfc	-4
94	0x81	-127
95	0xf0	-16
96	0xfe	-2
97	0xfd	-3
98	0x20	32
99	0x4e	78
100	0xe2	-30
101	0xde	-34
102	0xc1	-63
103	0x1e	30
104	0x13	19
105	0x01	1
106	0xe8	-24
107	0xd9	-39
108	0xe9	-23
109	0x6b	107
110	0x46	70
111	0x1e	30
112	0xfa	-6
113	0x42	66
114	0xf8	-8
115	0x81	-127
116	0xdb	-37
117	0xd9	-39
118	0x2e	46
119	0xdb	-37
120	0x1d	29
121	0x3a	58
122	0xbc	-68
123	0x02	2
124	0xcb	-53
125	0x55	85
126	0x46	70
127	0xf9	-7
128	0x27	39
129	0x1b	27
130	0x26	38
131	0x8a	-118
132	0xee	-18
133	0x19	25
134	0x30	48
135	0x81	-127
136	0xf2	-14
137	0x3b	59
138	0xe9	-23
139	0xf1	-15
140	0xb3	-77
141	0xd0	-48
142	0x62	98
143	0xc8	-56
144	0x26	38
145	0x84	-124
146	0xe6	-26
147	0x25	37
148	0xe8	-24
149	0xe7	-25
150	0x13	19
151	0xf7	-9
152	0x13	19
153	0x16	22
154	0x44	68
155	0x1b	27
156	0x19	25
157	0x81	-127
158	0xf1	-15
159	0x00	0
160	0xc7	-57
161	0xc2	-62
162	0x29	41
163	0x08	8
164	0x42	66
165	0xd5	-43
166	0xde	-34
167	0xd2	-46
168	0xfa	-6
169	0x35	53
170	0x18	24
171	0xfd	-3
172	0xf1	-15
173	0x0e	14
174	0x24	36
175	0xcd	-51
176	0xd4	-44
177	0xf6	-10
178	0x19	25
179	0xe5	-27
180	0x05	5
181	0x7f	127
182	0x0f	15
183	0xbf	-65
184	0xf9	-7
185	0x35	53
186	0x1d	29
187	0xd0	-48
188	0x12	18
189	0x46	70
190	0x38	56
191	0x03	3
192	0x07	7
193	0xb3	-77
194	0x11	17
195	0xdb	-37
196	0xf5	-11
197	0x7f	127
198	0xf0	-16
199	0x2c	44
200	0x2a	42
201	0xbc	-68
202	0x0a	10
203	0x01	1
204	0xd9	-39
205	0xe7	-25
206	0x1b	27
207	0x0a	10
208	0xe7	-25
209	0xb2	-78
210	0xcf	-49
211	0x24	36
212	0x0e	14
213	0xaf	-81
214	0xdf	-33
215	0xee	-18
216	0xf1	-15
217	0x2d	45
218	0x03	3
219	0x2b	43
220	0x8f	-113
221	0x31	49
222	0xfc	-4
223	0xca	-54
224	0x1d	29
225	0x97	-105
226	0x13	19
227	0xfb	-5
228	0xc4	-60
229	0xc9	-55
230	0x1e	30
231	0xca	-54
232	0x00	0
233	0x0e	14
234	0xdc	-36
235	0xad	-83
236	0xac	-84
237	0xa7	-89
238	0x19	25
239	0x81	-127
240	0x21	33
241	0xf2	-14
242	0x1b	27
243	0xec	-20
244	0x21	33
245	0xbe	-66
246	0x2c	44
247	0x2d	45
248	0xfd	-3
249	0xcc	-52
250	0xd8	-40
251	0xe0	-32
252	0x16	22
253	0x02	2
254	0xde	-34
255	0x2d	45

model_2/batch_normalization_40/FusedBatchNormV3;model_2/depthwise_conv2d_20/depthwise;model_2/conv2d_66/Conv2D i1 [1, 3, 3, 24]
0	0x52	82
1	0x8d	-115
2	0xea	-22
3	0x10	16
4	0x76	118
5	0xd6	-42
6	0xe8	-24
7	0x08	8
8	0xe2	-30
9	0xf9	-7
10	0x9a	-102
11	0x7f	127
12	0xb7	-73
13	0xfb	-5
14	0x81	-127
15	0x23	35
16	0x67	103
17	0x3e	62
18	0x3a	58
19	0x19	25
20	0x15	21
21	0x10	16
22	0xf4	-12
23	0x81	-127
24	0x7f	127
25	0x9d	-99
26	0xa0	-96
27	0x0e	14
28	0x1a	26
29	0x73	115
30	0x15	21
31	0xef	-17
32	0xb9	-71
33	0x06	6
34	0x81	-127
35	0x24	36
36	0xd1	-47
37	0x01	1
38	0xe7	-25
39	0x43	67
40	0x7f	127
41	0xff	-1
42	0x18	24
43	0x15	21
44	0x29	41
45	0xe3	-29
46	0xff	-1
47	0xfb	-5
48	0x3d	61
49	0x72	114
50	0x81	-127
51	0xea	-22
52	0xd7	-41
53	0x7f	127
54	0x2e	46
55	0xf9	-7
56	0xe9	-23
57	0xf3	-13
58	0x68	104
59	0x68	104
60	0x22	34
61	0x08	8
62	0x02	2
63	0x06	6
64	0x56	86
65	0xd0	-48
66	0x81	-127
67	0x06	6
68	0x7f	127
69	0x1c	28
70	0x0b	11
71	0x23	35
72	0xa0	-96
73	0x0c	12
74	0x26	38
75	0x05	5
76	0x36	54
77	0x5b	91
78	0x0a	10
79	0x73	115
80	0xf9	-7
81	0xf9	-7
82	0xaf	-81
83	0x48	72
84	0xb6	-74
85	0x07	7
86	0x16	22
87	0x9e	-98
88	0x8a	-118
89	0x56	86
90	0xd6	-42
91	0x81	-127
92	0xe1	-31
93	0x44	68
94	0x0e	14
95	0x30	48
96	0xa4	-92
97	0x7f	127
98	0x42	66
99	0xde	-34
100	0xf4	-12
101	0x3c	60
102	0x09	9
103	0x7f	127
104	0xba	-70
105	0x12	18
106	0xcd	-51
107	0x07	7
108	0xbd	-67
109	0xed	-19
110	0x7e	126
111	0x3d	61
112	0xbc	-68
113	0x5e	94
114	0x15	21
115	0xc1	-63
116	0xff	-1
117	0x4a	74
118	0x03	3
119	0x04	4
120	0xfa	-6
121	0x7f	127
122	0x2a	42
123	0xf3	-13
124	0x81	-127
125	0x7c	124
126	0x17	23
127	0x74	116
128	0x81	-127
129	0xf7	-9
130	0x32	50
131	0x5b	91
132	0x05	5
133	0x02	2
134	0x2c	44
135	0x7f	127
136	0xd6	-42
137	0x44	68
138	0xc4	-60
139	0xec	-20
140	0x2e	46
141	0x11	17
142	0xfe	-2
143	0x27	39
144	0xf3	-13
145	0x14	20
146	0x5a	90
147	0x9a	-102
148	0xdd	-35
149	0x25	37
150	0x7f	127
151	0x60	96
152	0xf5	-11
153	0xbf	-65
154	0xe8	-24
155	0x24	36
156	0x81	-127
157	0xb2	-78
158	0x1b	27
159	0xbb	-69
160	0xef	-17
161	0x76	118
162	0xe5	-27
163	0x46	70
164	0xe2	-30
165	0x86	-122
166	0xf3	-13
167	0xf1	-15
168	0xfe	-2
169	0x5c	92
170	0x2e	46
171	0x81	-127
172	0xe8	-24
173	0x51	81
174	0x6b	107
175	0x48	72
176	0x34	52
177	0x81	-127
178	0xd6	-42
179	0xf7	-9
180	0xda	-38
181	0x81	-127
182	0x31	49
183	0xb4	-76
184	0xc6	-58
185	0x7f	127
186	0x44	68
187	0x39	57
188	0xb6	-74
189	0x81	-127
190	0xbb	-69
191	0xcf	-49
192	0xf4	-12
193	0x51	81
194	0xe4	-28
195	0xbd	-67
196	0xf0	-16
197	0x0d	13
198	0x33	51
199	0x6d	109
200	0x60	96
201	0xc7	-57
202	0x09	9
203	0x68	104
204	0x06	6
205	0xd9	-39
206	0xf8	-8
207	0x17	23
208	0x00	0
209	0x77	119
210	0xae	-82
211	0x05	5
212	0xe2	-30
213	0xad	-83
214	0x81	-127
215	0xb3	-77

model_2/conv2d_64/Conv2D i1 [32, 1, 1, 24]
0	0x61	97
1	0x3f	63
2	0x29	41
3	0x75	117
4	0x0d	13
5	0x9a	-102
6	0x42	66
7	0xe1	-31
8	0x09	9
9	0xf7	-9
10	0x0d	13
11	0x81	-127
12	0x19	25
13	0x7f	127
14	0xf5	-11
15	0xa8	-88
16	0xf8	-8
17	0xe1	-31
18	0xa3	-93
19	0x26	38
20	0x02	2
21	0xdf	-33
22	0x9f	-97
23	0xe3	-29
24	0xd5	-43
25	0xef	-17
26	0xe1	-31
27	0x24	36
28	0x7f	127
29	0x45	69
30	0xfe	-2
31	0xf7	-9
32	0x08	8
33	0x25	37
34	0xde	-34
35	0xf3	-13
36	0xfe	-2
37	0xdb	-37
38	0xde	-34
39	0x0b	11
40	0xc4	-60
41	0x30	48
42	0x20	32
43	0xc5	-59
44	0x04	4
45	0xda	-38
46	0xd9	-39
47	0xd6	-42
48	0x5c	92
49	0x46	70
50	0xed	-19
51	0xa8	-88
52	0xfb	-5
53	0xea	-22
54	0xdd	-35
55	0xec	-20
56	0xbf	-65
57	0x0f	15
58	0x0f	15
59	0x20	32
60	0x96	-106
61	0x2b	43
62	0xef	-17
63	0xa8	-88
64	0xfe	-2
65	0x12	18
66	0xca	-54
67	0x42	66
68	0xbb	-69
69	0x2d	45
70	0x4d	77
71	0x81	-127
72	0xe3	-29
73	0xa5	-91
74	0x9c	-100
75	0x4f	79
76	0x81	-127
77	0xe7	-25
78	0xf8	-8
79	0xd5	-43
80	0xf9	-7
81	0xf3	-13
82	0xe3	-29
83	0x47	71
84	0x09	9
85	0xe5	-27
86	0x2f	47
87	0xfb	-5
88	0xdf	-33
89	0xfc	-4
90	0x47	71
91	0xb9	-71
92	0xaa	-86
93	0xe6	-26
94	0xc5	-59
95	0xe2	-30
96	0x70	112
97	0x55	85
98	0x01	1
99	0x51	81
100	0x3d	61
101	0x0c	12
102	0xb4	-76
103	0x48	72
104	0xd3	-45
105	0xfb	-5
106	0x32	50
107	0xaa	-86
108	0x4a	74
109	0x81	-127
110	0x39	57
111	0x39	57
112	0x2a	42
113	0xf2	-14
114	0x16	22
115	0xd9	-39
116	0xed	-19
117	0xc6	-58
118	0xef	-17
119	0xdc	-36
120	0x22	34
121	0xe4	-28
122	0x3b	59
123	0xd2	-46
124	0x2b	43
125	0xeb	-21
126	0x3f	63
127	0xd3	-45
128	0x19	25
129	0x57	87
130	0x15	21
131	0x10	16
132	0x81	-127
133	0x2d	45
134	0xeb	-21
135	0x01	1
136	0x6e	110
137	0xf8	-8
138	0x24	36
139	0xab	-85
140	0xa5	-91
141	0x10	16
142	0x21	33
143	0xde	-34
144	0xf6	-10
145	0x18	24
146	0xec	-20
147	0xb4	-76
148	0x81	-127
149	0x3d	61
150	0x5a	90
151	0xf2	-14
152	0x1d	29
153	0x02	2
154	0xf0	-16
155	0xfd	-3
156	0xe4	-28
157	0x32	50
158	0x2a	42
159	0xa6	-90
160	0x22	34
161	0x34	52
162	0xa6	-90
163	0x33	51
164	0x09	9
165	0xb0	-80
166	0xd4	-44
167	0x6f	111
168	0xf2	-14
169	0x1f	31
170	0x1a	26
171	0xe2	-30
172	0xc7	-57
173	0x0f	15
174	0xd0	-48
175	0x3a	58
176	0xfc	-4
177	0x1f	31
178	0x03	3
179	0x09	9
180	0xf2	-14
181	0x1b	27
182	0xf3	-13
183	0x3b	59
184	0x81	-127
185	0x01	1
186	0x26	38
187	0xdc	-36
188	0xe7	-25
189	0xd3	-45
190	0x01	1
191	0x1f	31
192	0xd9	-39
193	0x81	-127
194	0x45	69
195	0xfb	-5
196	0x3a	58
197	0x30	48
198	0xf8	-8
199	0xb3	-77
200	0x19	25
201	0x0f	15
202	0x0c	12
203	0xeb	-21
204	0xf1	-15
205	0xec	-20
206	0x57	87
207	0x64	100
208	0x5f	95
209	0x26	38
210	0xdc	-36
211	0x18	24
212	0xf6	-10
213	0x26	38
214	0xd5	-43
215	0x32	50
216	0xb6	-74
217	0x81	-127
218	0x48	72
219	0x89	-119
220	0x18	24
221	0xf9	-7
222	0xc6	-58
223	0x48	72
224	0xea	-22
225	0x0a	10
226	0x11	17
227	0xae	-82
228	0xe1	-31
229	0x27	39
230	0x05	5
231	0x78	120
232	0x0d	13
233	0xeb	-21
234	0xfa	-6
235	0xf4	-12
236	0xe0	-32
237	0x3f	63
238	0x1d	29
239	0x3c	60
240	0x0a	10
241	0x55	85
242	0x95	-107
243	0x58	88
244	0xca	-54
245	0xa4	-92
246	0x15	21
247	0xdc	-36
248	0xf4	-12
249	0x0c	12
250	0xd4	-44
251	0x7f	127
252	0xed	-19
253	0xb3	-77
254	0x75	117
255	0xbb	-69

model_2/conv2d_61/Conv2D i1 [24, 1, 1, 16]
0	0x28	40
1	0x17	23
2	0xf0	-16
3	0x0c	12
4	0x12	18
5	0x31	49
6	0x1d	29
7	0x1e	30
8	0x21	33
9	0x4a	74
10	0x26	38
11	0x81	-127
12	0xe4	-28
13	0x30	48
14	0x38	56
15	0xe9	-23
16	0x56	86
17	0x56	86
18	0xc8	-56
19	0x2b	43
20	0x04	4
21	0x16	22
22	0x3e	62
23	0xf0	-16
24	0x24	36
25	0x0e	14
26	0x29	41
27	0x81	-127
28	0xbf	-65
29	0xcd	-51
30	0xb0	-80
31	0x21	33
32	0x06	6
33	0x74	116
34	0x51	81
35	0x40	64
36	0x1a	26
37	0xf2	-14
38	0xce	-50
39	0x2b	43
40	0x24	36
41	0xfa	-6
42	0x18	24
43	0x59	89
44	0x16	22
45	0xc5	-59
46	0x52	82
47	0x81	-127
48	0x2e	46
49	0x60	96
50	0x0a	10
51	0x81	-127
52	0xb0	-80
53	0xbe	-66
54	0xc7	-57
55	0xfd	-3
56	0x21	33
57	0x23	35
58	0x0f	15
59	0xf0	-16
60	0x0a	10
61	0xe5	-27
62	0x3d	61
63	0x03	3
64	0xfb	-5
65	0xaf	-81
66	0x6c	108
67	0xf7	-9
68	0xff	-1
69	0xf8	-8
70	0x37	55
71	0x3d	61
72	0xa3	-93
73	0x09	9
74	0xbd	-67
75	0xfe	-2
76	0xf9	-7
77	0x50	80
78	0x81	-127
79	0xd1	-47
80	0xfc	-4
81	0xee	-18
82	0xe3	-29
83	0x8c	-116
84	0x0d	13
85	0x16	22
86	0xf7	-9
87	0xd5	-43
88	0x81	-127
89	0x1d	29
90	0xf8	-8
91	0xe2	-30
92	0xd8	-40
93	0xe6	-26
94	0xe3	-29
95	0xe8	-24
96	0x81	-127
97	0x14	20
98	0xe8	-24
99	0x09	9
100	0xde	-34
101	0xd5	-43
102	0x33	51
103	0xf7	-9
104	0xd5	-43
105	0x98	-104
106	0xd1	-47
107	0xd2	-46
108	0x40	64
109	0x66	102
110	0x19	25
111	0xe6	-26
112	0x23	35
113	0x81	-127
114	0x99	-103
115	0xed	-19
116	0x8b	-117
117	0x24	36
118	0x5d	93
119	0xc9	-55
120	0x44	68
121	0x46	70
122	0xce	-50
123	0xed	-19
124	0x07	7
125	0xfb	-5
126	0x61	97
127	0x40	64
128	0xcb	-53
129	0x4d	77
130	0xda	-38
131	0x1b	27
132	0x81	-127
133	0x4c	76
134	0x14	20
135	0x46	70
136	0x94	-108
137	0xc8	-56
138	0xc1	-63
139	0xc1	-63
140	0xdb	-37
141	0x2a	42
142	0xb4	-76
143	0x08	8
144	0xd5	-43
145	0xb8	-72
146	0xc3	-61
147	0xf5	-11
148	0x23	35
149	0x07	7
150	0xb0	-80
151	0xf9	-7
152	0xab	-85
153	0xff	-1
154	0x66	102
155	0x1b	27
156	0xd6	-42
157	0xcf	-49
158	0xec	-20
159	0x81	-127
160	0x74	116
161	0xc5	-59
162	0xb8	-72
163	0xc0	-64
164	0x12	18
165	0xb4	-76
166	0x52	82
167	0x91	-111
168	0x1b	27
169	0x50	80
170	0x5f	95
171	0xf1	-15
172	0x81	-127
173	0xd0	-48
174	0x50	80
175	0xf2	-14
176	0x06	6
177	0xb9	-71
178	0xfe	-2
179	0x0d	13
180	0xed	-19
181	0xcf	-49
182	0x81	-127
183	0xcd	-51
184	0xfa	-6
185	0xce	-50
186	0xd6	-42
187	0x82	-126
188	0x0f	15
189	0xea	-22
190	0xe7	-25
191	0x5f	95
192	0x9e	-98
193	0x40	64
194	0xfe	-2
195	0xeb	-21
196	0xb9	-71
197	0x2f	47
198	0x60	96
199	0xd4	-44
200	0x54	84
201	0xc1	-63
202	0x5d	93
203	0x31	49
204	0xb6	-74
205	0xf6	-10
206	0xb8	-72
207	0x81	-127
208	0x02	2
209	0x06	6
210	0x2b	43
211	0x1f	31
212	0x21	33
213	0x13	19
214	0xbe	-66
215	0x0f	15
216	0x4c	76
217	0x81	-127
218	0x14	20
219	0xe5	-27
220	0x00	0
221	0x06	6
222	0x2a	42
223	0x1c	28
224	0x08	8
225	0x30	48
226	0xd4	-44
227	0x3b	59
228	0xe7	-25
229	0x94	-108
230	0x40	64
231	0x0f	15
232	0x12	18
233	0x8f	-113
234	0xf3	-13
235	0xee	-18
236	0xee	-18
237	0xe9	-23
238	0x0e	14
239	0x7f	127
240	0x81	-127
241	0xf4	-12
242	0x03	3
243	0x4b	75
244	0xc8	-56
245	0x2c	44
246	0xf3	-13
247	0x0e	14
248	0xc4	-60
249	0xa1	-95
250	0xf2	-14
251	0x13	19
252	0xf7	-9
253	0xf3	-13
254	0xd6	-42
255	0xdc	-36

model_2/batch_normalization_38/FusedBatchNormV3;model_2/depthwise_conv2d_19/depthwise;model_2/conv2d_67/Conv2D i1 [1, 3, 3, 16]
0	0x39	57
1	0x0c	12
2	0x7f	127
3	0x13	19
4	0x2e	46
5	0xd1	-47
6	0x7f	127
7	0x7f	127
8	0xa9	-87
9	0xe2	-30
10	0xbe	-66
11	0x7f	127
12	0xf0	-16
13	0xb2	-78
14	0x2c	44
15	0xb2	-78
16	0x2d	45
17	0x73	115
18	0x7a	122
19	0x25	37
20	0x61	97
21	0xc0	-64
22	0x70	112
23	0x00	0
24	0xc8	-56
25	0x27	39
26	0xed	-19
27	0x74	116
28	0xf7	-9
29	0x9d	-99
30	0xd2	-46
31	0xb9	-71
32	0x0e	14
33	0x7f	127
34	0x28	40
35	0x0e	14
36	0x5c	92
37	0xae	-82
38	0x15	21
39	0xc4	-60
40	0x2a	42
41	0x23	35
42	0xea	-22
43	0x1e	30
44	0x13	19
45	0xd4	-44
46	0x81	-127
47	0xbe	-66
48	0x68	104
49	0x0d	13
50	0x40	64
51	0x51	81
52	0x7b	123
53	0x57	87
54	0x6e	110
55	0x15	21
56	0xd3	-45
57	0x19	25
58	0xf5	-11
59	0x2b	43
60	0xca	-54
61	0x0b	11
62	0x28	40
63	0x81	-127
64	0x7f	127
65	0x6e	110
66	0x20	32
67	0x0f	15
68	0x7f	127
69	0x4f	79
70	0x3a	58
71	0xf2	-14
72	0xda	-38
73	0x54	84
74	0x1c	28
75	0x44	68
76	0xa0	-96
77	0x18	24
78	0xf1	-15
79	0xa8	-88
80	0x2f	47
81	0x33	51
82	0x0b	11
83	0xae	-82
84	0x7c	124
85	0xf5	-11
86	0x04	4
87	0xbf	-65
88	0x36	54
89	0x81	-127
90	0x66	102
91	0x06	6
92	0x81	-127
93	0x15	21
94	0xb0	-80
95	0xda	-38
96	0x29	41
97	0x09	9
98	0xe2	-30
99	0x7f	127
100	0x33	51
101	0x78	120
102	0x2a	42
103	0xcf	-49
104	0x44	68
105	0x45	69
106	0x3f	63
107	0xfa	-6
108	0x29	41
109	0x49	73
110	0xf5	-11
111	0xd6	-42
112	0x47	71
113	0x24	36
114	0xd9	-39
115	0xf5	-11
116	0x4f	79
117	0x7f	127
118	0x02	2
119	0x00	0
120	0x7f	127
121	0x41	65
122	0x7f	127
123	0xf7	-9
124	0x30	48
125	0x7f	127
126	0xd9	-39
127	0xa2	-94
128	0x2d	45
129	0xf8	-8
130	0xfc	-4
131	0x91	-111
132	0x11	17
133	0x5a	90
134	0xee	-18
135	0xe7	-25
136	0x57	87
137	0x24	36
138	0x7c	124
139	0x05	5
140	0x14	20
141	0x4e	78
142	0xf3	-13
143	0x85	-123

model_2/conv2d_62/Conv2D i1 [24, 1, 1, 16]
0	0x7f	127
1	0x14	20
2	0xfa	-6
3	0x26	38
4	0x00	0
5	0x42	66
6	0x46	70
7	0xdf	-33
8	0x0f	15
9	0x78	120
10	0x37	55
11	0xe3	-29
12	0xc3	-61
13	0xd6	-42
14	0x0e	14
15	0x88	-120
16	0xb9	-71
17	0xed	-19
18	0x4a	74
19	0x1d	29
20	0xfc	-4
21	0x06	6
22	0x66	102
23	0x24	36
24	0x9f	-97
25	0x30	48
26	0x11	17
27	0x75	117
28	0xfc	-4
29	0x81	-127
30	0xc1	-63
31	0x08	8
32	0x03	3
33	0x08	8
34	0x72	114
35	0xec	-20
36	0x4c	76
37	0x53	83
38	0x16	22
39	0xd0	-48
40	0x7f	127
41	0x96	-106
42	0xfe	-2
43	0x6d	109
44	0xe6	-26
45	0x1c	28
46	0x98	-104
47	0x2f	47
48	0xe0	-32
49	0x7f	127
50	0x02	2
51	0x1b	27
52	0x11	17
53	0xe2	-30
54	0xec	-20
55	0xf9	-7
56	0x13	19
57	0xea	-22
58	0xd7	-41
59	0xa8	-88
60	0xb4	-76
61	0x4d	77
62	0x1d	29
63	0xf0	-16
64	0x0e	14
65	0x1f	31
66	0x7d	125
67	0x39	57
68	0x44	68
69	0xb0	-80
70	0x3e	62
71	0x81	-127
72	0x5e	94
73	0xf1	-15
74	0xf6	-10
75	0x15	21
76	0x0d	13
77	0x42	66
78	0x3c	60
79	0xc0	-64
80	0x40	64
81	0x04	4
82	0x5c	92
83	0x02	2
84	0x29	41
85	0x1c	28
86	0x0a	10
87	0x0e	14
88	0x7f	127
89	0xe3	-29
90	0x48	72
91	0x1c	28
92	0x16	22
93	0xd0	-48
94	0x11	17
95	0xf6	-10
96	0x5f	95
97	0xf9	-7
98	0x1a	26
99	0x47	71
100	0x29	41
101	0x48	72
102	0x22	34
103	0xe5	-27
104	0x95	-107
105	0x0d	13
106	0x35	53
107	0x0c	12
108	0x6a	106
109	0x7f	127
110	0x03	3
111	0xe3	-29
112	0xec	-20
113	0xe4	-28
114	0x06	6
115	0x53	83
116	0xdf	-33
117	0xb6	-74
118	0xa7	-89
119	0xee	-18
120	0x43	67
121	0xd8	-40
122	0xc2	-62
123	0x86	-122
124	0xcd	-51
125	0x81	-127
126	0x5f	95
127	0xe9	-23
128	0xf6	-10
129	0xed	-19
130	0xe0	-32
131	0xf7	-9
132	0x0d	13
133	0xdb	-37
134	0xdb	-37
135	0xad	-83
136	0xda	-38
137	0x81	-127
138	0xdc	-36
139	0x38	56
140	0x1c	28
141	0x15	21
142	0xd7	-41
143	0x3f	63
144	0x3f	63
145	0xc2	-62
146	0x38	56
147	0xec	-20
148	0x25	37
149	0x1f	31
150	0xdd	-35
151	0xc6	-58
152	0x4a	74
153	0x6f	111
154	0x14	20
155	0xe0	-32
156	0x24	36
157	0x93	-109
158	0x14	20
159	0x81	-127
160	0xf5	-11
161	0x26	38
162	0xf0	-16
163	0x00	0
164	0x0c	12
165	0xe1	-31
166	0xfc	-4
167	0x81	-127
168	0xd8	-40
169	0xe8	-24
170	0x1a	26
171	0x10	16
172	0x08	8
173	0x10	16
174	0xe9	-23
175	0xd7	-41
176	0x01	1
177	0x81	-127
178	0xbb	-69
179	0x43	67
180	0x2c	44
181	0x26	38
182	0x1a	26
183	0x10	16
184	0xec	-20
185	0x25	37
186	0xcd	-51
187	0xe0	-32
188	0xc4	-60
189	0xf8	-8
190	0x18	24
191	0xec	-20
192	0xe5	-27
193	0x6a	106
194	0xae	-82
195	0x05	5
196	0x81	-127
197	0x8a	-118
198	0x18	24
199	0xb7	-73
200	0x66	102
201	0xe9	-23
202	0x21	33
203	0x87	-121
204	0xdb	-37
205	0xe9	-23
206	0x34	52
207	0xc3	-61
208	0x74	116
209	0x81	-127
210	0xfc	-4
211	0xd3	-45
212	0xdb	-37
213	0x2a	42
214	0x1e	30
215	0xd4	-44
216	0x4f	79
217	0xc0	-64
218	0x70	112
219	0xd0	-48
220	0x03	3
221	0x01	1
222	0x6b	107
223	0x3d	61
224	0x06	6
225	0x07	7
226	0xf8	-8
227	0xfd	-3
228	0xee	-18
229	0xee	-18
230	0x08	8
231	0x34	52
232	0xce	-50
233	0x81	-127
234	0x47	71
235	0x4b	75
236	0xed	-19
237	0x02	2
238	0xb7	-73
239	0x55	85
240	0xef	-17
241	0xfd	-3
242	0x11	17
243	0xd2	-46
244	0xd3	-45
245	0x1c	28
246	0xda	-38
247	0x2d	45
248	0x25	37
249	0x81	-127
250	0xaf	-81
251	0x38	56
252	0xf8	-8
253	0x9f	-97
254	0x20	32
255	0x33	51

model_2/conv2d_59/Conv2D i1 [16, 1, 1, 10]
0	0x5a	90
1	0xdd	-35
2	0x7b	123
3	0x29	41
4	0xab	-85
5	0x45	69
6	0xa1	-95
7	0x81	-127
8	0x82	-126
9	0xc2	-62
10	0xe2	-30
11	0x1c	28
12	0x01	1
13	0xee	-18
14	0xed	-19
15	0xb8	-72
16	0xf5	-11
17	0x15	21
18	0x0a	10
19	0x81	-127
20	0x10	16
21	0x41	65
22	0x2f	47
23	0x17	23
24	0xae	-82
25	0xc8	-56
26	0xdb	-37
27	0x4f	79
28	0xf0	-16
29	0x7f	127
30	0x16	22
31	0xdf	-33
32	0x98	-104
33	0x01	1
34	0xfe	-2
35	0x6e	110
36	0x81	-127
37	0xd4	-44
38	0xfa	-6
39	0x7a	122
40	0x2b	43
41	0x59	89
42	0x7f	127
43	0x4c	76
44	0x25	37
45	0xb6	-74
46	0x1d	29
47	0x05	5
48	0x4e	78
49	0xc9	-55
50	0x11	17
51	0x09	9
52	0x7f	127
53	0x17	23
54	0x4e	78
55	0xe8	-24
56	0xf6	-10
57	0x2f	47
58	0x19	25
59	0x12	18
60	0xec	-20
61	0xd4	-44
62	0x74	116
63	0x2c	44
64	0x7f	127
65	0xf8	-8
66	0x11	17
67	0x34	52
68	0x25	37
69	0xd6	-42
70	0xf1	-15
71	0x1f	31
72	0x36	54
73	0x17	23
74	0x1b	27
75	0x7f	127
76	0xfd	-3
77	0x08	8
78	0xe3	-29
79	0x50	80
80	0x06	6
81	0xb3	-77
82	0xe7	-25
83	0x03	3
84	0xd7	-41
85	0x36	54
86	0x81	-127
87	0x06	6
88	0x04	4
89	0xdb	-37
90	0x08	8
91	0x1d	29
92	0x09	9
93	0x09	9
94	0xe0	-32
95	0xef	-17
96	0x7f	127
97	0xeb	-21
98	0xe2	-30
99	0xc3	-61
100	0x07	7
101	0x81	-127
102	0x2c	44
103	0x11	17
104	0x0b	11
105	0x4c	76
106	0x0b	11
107	0x0b	11
108	0x1a	26
109	0x2c	44
110	0x81	-127
111	0x05	5
112	0xde	-34
113	0x56	86
114	0xd6	-42
115	0x0a	10
116	0x11	17
117	0xa1	-95
118	0x10	16
119	0xde	-34
120	0x02	2
121	0x08	8
122	0x05	5
123	0x12	18
124	0x81	-127
125	0xf1	-15
126	0xef	-17
127	0x13	19
128	0x12	18
129	0x21	33
130	0x81	-127
131	0xd7	-41
132	0x95	-107
133	0xb5	-75
134	0x1b	27
135	0xa7	-89
136	0x12	18
137	0xf1	-15
138	0x26	38
139	0x9f	-97
140	0xf6	-10
141	0x24	36
142	0x16	22
143	0x19	25
144	0xe7	-25
145	0xa0	-96
146	0x7f	127
147	0x03	3
148	0xf5	-11
149	0xfa	-6
150	0xfd	-3
151	0xfd	-3
152	0xf7	-9
153	0xef	-17
154	0xfc	-4
155	0x04	4
156	0x7f	127
157	0xee	-18
158	0x13	19
159	0xfd	-3

model_2/batch_normalization_36/FusedBatchNormV3;model_2/depthwise_conv2d_18/depthwise i1 [1, 3, 3, 10]
0	0x81	-127
1	0x2d	45
2	0xbc	-68
3	0xda	-38
4	0xa5	-91
5	0x3d	61
6	0x00	0
7	0x81	-127
8	0xc4	-60
9	0x5c	92
10	0xa4	-92
11	0xea	-22
12	0xc6	-58
13	0xe4	-28
14	0x81	-127
15	0x11	17
16	0xf0	-16
17	0x87	-121
18	0x04	4
19	0x49	73
20	0x71	113
21	0x07	7
22	0xcc	-52
23	0x49	73
24	0xe5	-27
25	0x81	-127
26	0x06	6
27	0x0d	13
28	0x10	16
29	0x31	49
30	0x8f	-113
31	0xfb	-5
32	0xb7	-73
33	0xf5	-11
34	0x33	51
35	0x39	57
36	0xed	-19
37	0x55	85
38	0x97	-105
39	0x7f	127
40	0x8d	-115
41	0x84	-124
42	0x81	-127
43	0xfd	-3
44	0x32	50
45	0x22	34
46	0xd7	-41
47	0x63	99
48	0x81	-127
49	0x62	98
50	0x42	66
51	0xc0	-64
52	0xa5	-91
53	0x7f	127
54	0x00	0
55	0x98	-104
56	0x0d	13
57	0xef	-17
58	0xec	-20
59	0x0a	10
60	0x1e	30
61	0xcc	-52
62	0x06	6
63	0x59	89
64	0x04	4
65	0xdd	-35
66	0x49	73
67	0x29	41
68	0x5e	94
69	0x15	21
70	0x03	3
71	0x81	-127
72	0xfe	-2
73	0x3c	60
74	0x08	8
75	0xcb	-53
76	0x7f	127
77	0x4f	79
78	0x75	117
79	0xfa	-6
80	0xfc	-4
81	0x9f	-97
82	0xe6	-26
83	0xa0	-96
84	0x03	3
85	0xd0	-48
86	0x1d	29
87	0x09	9
88	0x26	38
89	0x09	9

model_2/conv2d_60/Conv2D i1 [16, 1, 1, 10]
0	0x5e	94
1	0xe4	-28
2	0xe6	-26
3	0x7f	127
4	0x40	64
5	0x14	20
6	0x27	39
7	0xd4	-44
8	0xce	-50
9	0x01	1
10	0xda	-38
11	0xd8	-40
12	0xda	-38
13	0x9d	-99
14	0xc2	-62
15	0xf0	-16
16	0xfd	-3
17	0xe6	-26
18	0xda	-38
19	0x81	-127
20	0x37	55
21	0xdd	-35
22	0xef	-17
23	0xf3	-13
24	0x71	113
25	0x04	4
26	0x53	83
27	0xd5	-43
28	0xd4	-44
29	0x7f	127
30	0x22	34
31	0xf5	-11
32	0x03	3
33	0x2e	46
34	0x60	96
35	0x17	23
36	0xf4	-12
37	0x7f	127
38	0x55	85
39	0x9b	-101
40	0x7f	127
41	0x2c	44
42	0xcc	-52
43	0x3a	58
44	0x2b	43
45	0xfc	-4
46	0x38	56
47	0x57	87
48	0x4c	76
49	0x26	38
50	0x2e	46
51	0x64	100
52	0x49	73
53	0x3a	58
54	0xea	-22
55	0xf6	-10
56	0xc2	-62
57	0x11	17
58	0x7f	127
59	0x29	41
60	0xd8	-40
61	0x05	5
62	0x19	25
63	0x03	3
64	0xe6	-26
65	0x43	67
66	0x27	39
67	0x7f	127
68	0x4d	77
69	0x1d	29
70	0x81	-127
71	0x2f	47
72	0x08	8
73	0x00	0
74	0xff	-1
75	0xdb	-37
76	0x27	39
77	0xcc	-52
78	0xeb	-21
79	0xeb	-21
80	0xef	-17
81	0x08	8
82	0x03	3
83	0xfc	-4
84	0xf9	-7
85	0xd0	-48
86	0xff	-1
87	0xce	-50
88	0xcd	-51
89	0x7f	127
90	0x2d	45
91	0xe5	-27
92	0xd6	-42
93	0x37	55
94	0x0d	13
95	0x7f	127
96	0xee	-18
97	0xf6	-10
98	0xd7	-41
99	0xcc	-52
100	0x02	2
101	0xf6	-10
102	0x0b	11
103	0x60	96
104	0x28	40
105	0x7f	127
106	0x1d	29
107	0x37	55
108	0x06	6
109	0xee	-18
110	0x81	-127
111	0xef	-17
112	0xfb	-5
113	0xe8	-24
114	0xec	-20
115	0xe7	-25
116	0xe1	-31
117	0x8c	-116
118	0xbe	-66
119	0xe5	-27
120	0x33	51
121	0xd5	-43
122	0xdc	-36
123	0x2f	47
124	0xaf	-81
125	0x65	101
126	0x51	81
127	0x03	3
128	0x56	86
129	0x81	-127
130	0x81	-127
131	0xf0	-16
132	0x16	22
133	0x92	-110
134	0x94	-108
135	0xf5	-11
136	0x0d	13
137	0x2e	46
138	0x13	19
139	0x08	8
140	0x24	36
141	0xaa	-86
142	0xe0	-32
143	0x16	22
144	0x0d	13
145	0x7f	127
146	0x6a	106
147	0x25	37
148	0xf9	-7
149	0xe6	-26
150	0xad	-83
151	0x42	66
152	0x14	20
153	0x14	20
154	0x03	3
155	0x0c	12
156	0xb1	-79
157	0x7f	127
158	0x76	118
159	0x43	67

model_2/conv2d_58/Conv2D i1 [9, 3, 3, 1]
0	0x43	67
1	0xfc	-4
2	0xb8	-72
3	0x7f	127
4	0xe7	-25
5	0x8d	-115
6	0x62	98
7	0xc7	-57
8	0xee	-18
9	0x87	-121
10	0xef	-17
11	0xf8	-8
12	0xba	-70
13	0xe7	-25
14	0x1f	31
15	0x7f	127
16	0x47	71
17	0x74	116
18	0x3f	63
19	0xda	-38
20	0xef	-17
21	0x7f	127
22	0xfc	-4
23	0xf1	-15
24	0x2f	47
25	0xf3	-13
26	0x16	22
27	0x0d	13
28	0xb0	-80
29	0x0d	13
30	0x30	48
31	0x81	-127
32	0x4d	77
33	0x2b	43
34	0x8f	-113
35	0x2e	46
36	0x22	34
37	0x30	48
38	0xcc	-52
39	0x0e	14
40	0x7f	127
41	0xec	-20
42	0xe6	-26
43	0x4e	78
44	0xe9	-23
45	0x28	40
46	0xee	-18
47	0x92	-110
48	0x12	18
49	0xa4	-92
50	0x81	-127
51	0xbf	-65
52	0xce	-50
53	0xe6	-26
54	0x03	3
55	0xeb	-21
56	0x00	0
57	0xf8	-8
58	0xc5	-59
59	0x81	-127
60	0x20	32
61	0x2c	44
62	0xd6	-42
63	0xd6	-42
64	0x8d	-115
65	0xc2	-62
66	0xbb	-69
67	0x81	-127
68	0xde	-34
69	0x30	48
70	0x5e	94
71	0x59	89
72	0x96	-106
73	0x93	-109
74	0xde	-34
75	0x4a	74
76	0x7f	127
77	0x4c	76
78	0xff	-1
79	0xd6	-42
80	0xdf	-33
