Models/MicroPyD-Net/peluoso_pyramid_eigen_real_fixed_32.tflite (tflite, 76024 bytes, 14 tensors)

model_5/conv2d_91/Conv2D i1 [1, 3, 3, 16] scale=0.004339042 zero_point=0
00000000: f8f5 e5ff 2723 1405 14fc 1d12 d8b5 e326
00000010: e403 2ffe 1d13 f020 3c13 e809 e1ae 15ff
00000020: f81c fe10 0c13 2902 fbf1 0f17 1600 1a31
00000030: 14e5 0114 f0ef 09ce 0502 16de 0795 0beb
00000040: 091f 1322 1a20 f5fb 2301 1c2b f413 1fde
00000050: e0db 1a16 22fb 2d24 2605 2bfe e9f7 1212
00000060: 2edc ec35 0d28 27f4 fdfc e8ce 0505 08d1
00000070: 2116 d76b 15e8 1fd3 37fd 3108 d6f4 e214
00000080: e9dc da7f f5f3 e1e9 fe2b e201 df0c fa13
-0.034712337 -0.047729462 -0.11715414 -0.004339042 0.16922264 0.15186648 0.086780846 0.021695212
0.086780846 -0.017356168 0.12583221 0.07810276 -0.17356169 -0.32542816 -0.12583221 0.1648836
-0.121493176 0.013017126 0.20393498 -0.008678084 0.12583221 0.0824418 -0.069424674 0.13884935
0.26034254 0.0824418 -0.10413701 0.03905138 -0.13451031 -0.35580146 0.091119885 -0.004339042
-0.034712337 0.121493176 -0.008678084 0.069424674 0.052068505 0.0824418 0.17790073 0.008678084
-0.021695212 -0.065085635 0.065085635 0.09979797 0.095458925 0.0 0.1128151 0.21261306
0.086780846 -0.11715414 0.004339042 0.086780846 -0.069424674 -0.07376371 0.03905138 -0.2169521
0.021695212 0.008678084 0.095458925 -0.14752743 0.030373294 -0.4642775 0.047729462 -0.091119885
0.03905138 0.13451031 0.0824418 0.14752743 0.1128151 0.13884935 -0.047729462 -0.021695212
0.15186648 0.004339042 0.121493176 0.18657881 -0.052068505 0.0824418 0.13451031 -0.14752743
-0.13884935 -0.16054456 0.1128151 0.095458925 0.14752743 -0.021695212 0.19525689 0.15620552
0.1648836 0.021695212 0.18657881 -0.008678084 -0.09979797 -0.03905138 0.07810276 0.07810276
0.19959594 -0.15620552 -0.086780846 0.22996923 0.05640755 0.17356169 0.16922264 -0.052068505
-0.013017126 -0.017356168 -0.10413701 -0.2169521 0.021695212 0.021695212 0.034712337 -0.20393498
0.14318839 0.095458925 -0.17790073 0.4642775 0.091119885 -0.10413701 0.13451031 -0.19525689
0.23864731 -0.013017126 0.21261306 0.034712337 -0.18223977 -0.052068505 -0.13017127 0.086780846
-0.09979797 -0.15620552 -0.1648836 0.55105835 -0.047729462 -0.05640755 -0.13451031 -0.09979797
-0.008678084 0.18657881 -0.13017127 0.004339042 -0.14318839 0.052068505 -0.026034253 0.0824418

model_5/conv2d_90/Conv2D i1 [16, 3, 3, 16]
00000000: 05ef ea25 eaee 7f25 f8f4 100a fbd3 29f2
00000010: 13df fb3e 051f 412b fbe6 e023 f413 cdf3
00000020: fccf 1702 f9f5 00d6 86fe c1d6 1ec9 0615
00000030: 3c0b 7064 3709 cf03 dff8 ff3f 150b 3b44
00000040: 00fd db21 130a d201 2900 2df9 2aff d031
00000050: 0ed9 3237 e30b 0003 cc1f 2eee 2514 0624
00000060: 1708 ef70 4933 2435 fa16 144f dcf8 f84b
00000070: 0f02 bffd 31f2 02ea 3314 020e 05ff daec
00000080: ebec ef1d 00fe f109 ea14 0eeb 22fc e204
00000090: e3dc 01ce fffa e018 0206 e7eb d5f9 0f07
000000a0: 0210 35f8 14f8 fc08 0023 e400 131a 0d1d
000000b0: 10e3 0ed2 1b22 1902 3d15 0628 0626 03c7
000000c0: de1b 37d5 12d2 e6fb 0be2 c9f5 c908 e1d7
000000d0: 01dc 19d6 eefe 12f1 e3fe 1713 e2d7 04a3
000000e0: e9e3 25f4 f4d9 290c ff07 f6f0 07dc 19d1
000000f0: 01e9 fcdd 07d4 1606 0ddd 020f 00e5 15e1
5 -17 -22 37 -22 -18 127 37
-8 -12 16 10 -5 -45 41 -14
19 -33 -5 62 5 31 65 43
-5 -26 -32 35 -12 19 -51 -13
-4 -49 23 2 -7 -11 0 -42
-122 -2 -63 -42 30 -55 6 21
60 11 112 100 55 9 -49 3
-33 -8 -1 63 21 11 59 68
0 -3 -37 33 19 10 -46 1
41 0 45 -7 42 -1 -48 49
14 -39 50 55 -29 11 0 3
-52 31 46 -18 37 20 6 36
23 8 -17 112 73 51 36 53
-6 22 20 79 -36 -8 -8 75
15 2 -65 -3 49 -14 2 -22
51 20 2 14 5 -1 -38 -20
-21 -20 -17 29 0 -2 -15 9
-22 20 14 -21 34 -4 -30 4
-29 -36 1 -50 -1 -6 -32 24
2 6 -25 -21 -43 -7 15 7
2 16 53 -8 20 -8 -4 8
0 35 -28 0 19 26 13 29
16 -29 14 -46 27 34 25 2
61 21 6 40 6 38 3 -57
-34 27 55 -43 18 -46 -26 -5
11 -30 -55 -11 -55 8 -31 -41
1 -36 25 -42 -18 -2 18 -15
-29 -2 23 19 -30 -41 4 -93
-23 -29 37 -12 -12 -39 41 12
-1 7 -10 -16 7 -36 25 -47
1 -23 -4 -35 7 -44 22 6
13 -35 2 15 0 -27 21 -31

model_5/conv2d_89/Conv2D i1 [16, 3, 3, 16]
00000000: 9643 2ebb ee31 25cf 4ee8 f6f3 1b51 e027
00000010: 4731 2efe 4237 c6c0 ff23 1736 7dbd 4605
00000020: df0b 4522 f2c2 eaec e70a b3f7 12e3 1a2f
00000030: 2310 2d23 2be8 d3fa 2fa3 eeb5 0107 50b3
00000040: 1cef 0104 f6f5 e815 18c5 2a09 36f9 4531
00000050: 6f56 1fc3 c424 20e3 cdbe fdb7 d2cd c9e2
00000060: 40be b6a5 1632 b1b8 d09c 2cfe c9c7 4dbf
00000070: 2cd9 c721 22c6 81c5 cbe3 3816 fabd 016d
00000080: e30d b8b7 4a12 ee1e 3da2 b5f2 4c28 4612
00000090: f4d2 4940 45fd bd23 3ae6 1e87 4041 2a73
000000a0: a941 119e eb15 2bbe eeae 381f 2610 d5da
000000b0: 271e 3ec8 e12b 10eb f421 b2d8 3c54 212a
000000c0: 4df7 38d5 c733 98bf aed6 7690 38ce f365
000000d0: 050f dfda c90a 39b1 0bc7 07e2 35fa 4863
000000e0: 1a56 2306 e53f ab25 b2cd c59a c402 ebe1
000000f0: fd0a 1418 28cf 4ee0 53a5 1312 1c12 dcef
-106 67 46 -69 -18 49 37 -49
78 -24 -10 -13 27 81 -32 39
71 49 46 -2 66 55 -58 -64
-1 35 23 54 125 -67 70 5
-33 11 69 34 -14 -62 -22 -20
-25 10 -77 -9 18 -29 26 47
35 16 45 35 43 -24 -45 -6
47 -93 -18 -75 1 7 80 -77
28 -17 1 4 -10 -11 -24 21
24 -59 42 9 54 -7 69 49
111 86 31 -61 -60 36 32 -29
-51 -66 -3 -73 -46 -51 -55 -30
64 -66 -74 -91 22 50 -79 -72
-48 -100 44 -2 -55 -57 77 -65
44 -39 -57 33 34 -58 -127 -59
-53 -29 56 22 -6 -67 1 109
-29 13 -72 -73 74 18 -18 30
61 -94 -75 -14 76 40 70 18
-12 -46 73 64 69 -3 -67 35
58 -26 30 -121 64 65 42 115
-87 65 17 -98 -21 21 43 -66
-18 -82 56 31 38 16 -43 -38
39 30 62 -56 -31 43 16 -21
-12 33 -78 -40 60 84 33 42
77 -9 56 -43 -57 51 -104 -65
-82 -42 118 -112 56 -50 -13 101
5 15 -33 -38 -55 10 57 -79
11 -57 7 -30 53 -6 72 99
26 86 35 6 -27 63 -85 37
-78 -51 -59 -102 -60 2 -21 -31
-3 10 20 24 40 -49 78 -32
83 -91 19 18 28 18 -36 -17

model_5/conv2d_88/Conv2D i1 [16, 3, 3, 24]
00000000: fdf0 eefa 0c06 2bd6 47fa e24b ead7 e8c1
00000010: efff 09d3 dbeb fce1 f90c 27fe 3e32 13e8
00000020: e6cd 08f0 12bc d1e0 3af1 cc05 fe04 09dc
00000030: 21ba f226 4f27 2439 ab04 f2d5 dafc e7ff
00000040: 20e6 06d5 f403 1034 1139 0b1a f20a 1ee2
00000050: 4409 4f03 f30d 18d6 f027 e0e5 dbec 1403
00000060: e9d1 ed0f 35f9 21b5 5f28 021e 041b b9d9
00000070: f4cd 1d0d f02d df2f cd05 dd10 2f18 4140
00000080: f9cd 3305 27dd 07f8 2f12 f1e0 df08 2afc
00000090: fd1c 0c20 0781 f5a8 5d53 3626 18f9 f402
000000a0: ce4f dfe2 2922 29c6 1c1f 19fc 04da 0ba0
000000b0: 58fe c9cc ebd6 cb2b 20f5 8dd9 2016 1b3a
000000c0: f901 feee f2e6 30db d11f d6ae f9d2 02d7
000000d0: 0634 cf22 fdf7 d0d6 1fcf 04b8 fad8 d8d9
000000e0: 1da5 d096 f81d b340 e70b c5ea f7bd c2c3
000000f0: 05f2 c833 f143 ccc8 da03 9b59 bfea d16b
-3 -16 -18 -6 12 6 43 -42
71 -6 -30 75 -22 -41 -24 -63
-17 -1 9 -45 -37 -21 -4 -31
-7 12 39 -2 62 50 19 -24
-26 -51 8 -16 18 -68 -47 -32
58 -15 -52 5 -2 4 9 -36
33 -70 -14 38 79 39 36 57
-85 4 -14 -43 -38 -4 -25 -1
32 -26 6 -43 -12 3 16 52
17 57 11 26 -14 10 30 -30
68 9 79 3 -13 13 24 -42
-16 39 -32 -27 -37 -20 20 3
-23 -47 -19 15 53 -7 33 -75
95 40 2 30 4 27 -71 -39
-12 -51 29 13 -16 45 -33 47
-51 5 -35 16 47 24 65 64
-7 -51 51 5 39 -35 7 -8
47 18 -15 -32 -33 8 42 -4
-3 28 12 32 7 -127 -11 -88
93 83 54 38 24 -7 -12 2
-50 79 -33 -30 41 34 41 -58
28 31 25 -4 4 -38 11 -96
88 -2 -55 -52 -21 -42 -53 43
32 -11 -115 -39 32 22 27 58
-7 1 -2 -18 -14 -26 48 -37
-47 31 -42 -82 -7 -46 2 -41
6 52 -49 34 -3 -9 -48 -42
31 -49 4 -72 -6 -40 -40 -39
29 -91 -48 -106 -8 29 -77 64
-25 11 -59 -22 -9 -67 -62 -61
5 -14 -56 51 -15 67 -52 -56
-38 3 -101 89 -65 -22 -47 107

model_5/conv2d_transpose_16/conv2d_transpose i1 [16, 2, 2, 32]
00000000: 110e c449 35b3 17f5 349e f9f0 b7e7 330a
00000010: 2916 c0f2 cec1 9bf8 b603 f84b f002 eb96
00000020: 16fd fa4c 7806 d62c f1b6 b68e e8c8 ce01
00000030: 40f8 36be 0e3f 8bc6 81b9 031d 02e8 fbbe
00000040: ed3c 1912 f89a cfdc 1697 a2cc 2dd2 b308
00000050: c214 4790 1e40 843b b42c 47b7 54e7 93dc
00000060: c3c6 24cd 07c6 f00e 36a1 e40d 3de6 a9f0
00000070: fe04 520c 32ee f9fb d549 1c26 d32e b2e9
00000080: 4527 ed45 9a19 5119 ebce 164b dadb 5218
00000090: 22d4 4f1e 0bec 75cb e030 59b4 358f cf2b
000000a0: 400c 38d2 e5e0 280f 983a 37d9 c1ea 554e
000000b0: c3c2 1d34 f3a5 e0f6 411e db31 0f91 1bbb
000000c0: fef4 e2c1 2938 33b4 4727 2862 b111 2c06
000000d0: 28b4 2b05 0fd6 7f30 6a2a fc06 fc1f 265c
000000e0: fc9b ad32 2152 242c 4c3e fc55 9f53 2a0a
000000f0: 5f2a 267c cd20 10d7 c6e9 31ed dedf 0202
17 14 -60 73 53 -77 23 -11
52 -98 -7 -16 -73 -25 51 10
41 22 -64 -14 -50 -63 -101 -8
-74 3 -8 75 -16 2 -21 -106
22 -3 -6 76 120 6 -42 44
-15 -74 -74 -114 -24 -56 -50 1
64 -8 54 -66 14 63 -117 -58
-127 -71 3 29 2 -24 -5 -66
-19 60 25 18 -8 -102 -49 -36
22 -105 -94 -52 45 -46 -77 8
-62 20 71 -112 30 64 -124 59
-76 44 71 -73 84 -25 -109 -36
-61 -58 36 -51 7 -58 -16 14
54 -95 -28 13 61 -26 -87 -16
-2 4 82 12 50 -18 -7 -5
-43 73 28 38 -45 46 -78 -23
69 39 -19 69 -102 25 81 25
-21 -50 22 75 -38 -37 82 24
34 -44 79 30 11 -20 117 -53
-32 48 89 -76 53 -113 -49 43
64 12 56 -46 -27 -32 40 15
-104 58 55 -39 -63 -22 85 78
-61 -62 29 52 -13 -91 -32 -10
65 30 -37 49 15 -111 27 -69
-2 -12 -30 -63 41 56 51 -76
71 39 40 98 -79 17 44 6
40 -76 43 5 15 -42 127 48
106 42 -4 6 -4 31 38 92
-4 -101 -83 50 33 82 36 44
76 62 -4 85 -97 83 42 10
95 42 38 124 -51 32 16 -41
-58 -23 49 -19 -34 -33 2 2

model_5/conv2d_87/Conv2D i1 [32, 3, 3, 32]
00000000: 1f01 b90b 1f30 29db 15ea 7f1f d425 2c23
00000010: 1a2a dc28 03ec 0808 1446 1911 04ff 10c8
00000020: e9e2 aced fd30 0107 33e2 5011 1914 dc00
00000030: 2912 d6e1 300f ecea f6fb fcfb 1fdf f1ff
00000040: cc05 c0f1 b21b 0ae2 30e7 f911 0c0b f1de
00000050: fd09 16d8 2be3 2a0c 2a0c 0ce1 dcf8 e80c
00000060: e10b e40e 1af6 0ff6 e216 44eb ece2 b812
00000070: 1a07 cb1e 13cc f9e3 073f d6fb e001 e10b
00000080: 021c 381b fc06 04e3 2ad9 ffee dbe2 bf0b
00000090: 08bc 11ee 16e9 eade 1e01 c7fc f031 080d
000000a0: bfee ed20 f124 ff1d 20cf bbf8 2a14 0cd4
000000b0: daca 10f6 0eda dee4 caf9 cf0f dedd eb18
000000c0: bc20 e90f f00e e7e8 08fb 1c1e cee4 0f1d
000000d0: 0b2e 96e9 dccb 03d9 30f7 2ad0 e6e4 22ee
000000e0: c41c dff8 3823 cfe7 f903 2101 fc1a e601
000000f0: 05e3 e5e4 181e dec7 1bd0 ed18 de20 2b1f
31 1 -71 11 31 48 41 -37
21 -22 127 31 -44 37 44 35
26 42 -36 40 3 -20 8 8
20 70 25 17 4 -1 16 -56
-23 -30 -84 -19 -3 48 1 7
51 -30 80 17 25 20 -36 0
41 18 -42 -31 48 15 -20 -22
-10 -5 -4 -5 31 -33 -15 -1
-52 5 -64 -15 -78 27 10 -30
48 -25 -7 17 12 11 -15 -34
-3 9 22 -40 43 -29 42 12
42 12 12 -31 -36 -8 -24 12
-31 11 -28 14 26 -10 15 -10
-30 22 68 -21 -20 -30 -72 18
26 7 -53 30 19 -52 -7 -29
7 63 -42 -5 -32 1 -31 11
2 28 56 27 -4 6 4 -29
42 -39 -1 -18 -37 -30 -65 11
8 -68 17 -18 22 -23 -22 -34
30 1 -57 -4 -16 49 8 13
-65 -18 -19 32 -15 36 -1 29
32 -49 -69 -8 42 20 12 -44
-38 -54 16 -10 14 -38 -34 -28
-54 -7 -49 15 -34 -35 -21 24
-68 32 -23 15 -16 14 -25 -24
8 -5 28 30 -50 -28 15 29
11 46 -106 -23 -36 -53 3 -39
48 -9 42 -48 -26 -28 34 -18
-60 28 -33 -8 56 35 -49 -25
-7 3 33 1 -4 26 -26 1
5 -29 -27 -28 24 30 -34 -57
27 -48 -19 24 -34 32 43 31

model_5/conv2d_86/Conv2D i1 [32, 3, 3, 32]
00000000: e81a ee0e 1e26 0a01 1ad7 2ee5 24f4 29da
00000010: eb10 d64d dfe6 19f2 ea2b ef16 0230 38ef
00000020: 0ce4 2d08 fa19 20eb f90a f407 09fb 2d08
00000030: f1eb d7eb 0de5 20e5 eefd f716 21fd 0bec
00000040: fa14 2e20 faeb 2202 09f9 e70a 22e6 e402
00000050: f3f5 db0c 0ed9 13dd 1313 04ee 09ef 2be9
00000060: 040a f3c4 d7f7 e42e def7 04f1 14f7 ef21
00000070: 0529 d5e1 f0e4 080a 1213 ffef 23ed 0a2d
00000080: 26f0 ffea dbf2 f2fb e11a e122 02c1 d3e0
00000090: 0e19 14f3 0822 201b 1afa eadc 27fe fa19
000000a0: 0cf1 03de e007 0cf8 151c e70e d7d9 faeb
000000b0: eceb d20c f9fc 15ef f41b c6d6 1f34 01e1
000000c0: 250a 000b 2211 fc1f fff4 0cfb 04ce 020c
000000d0: d9db d7fe eb10 f215 0a29 f2f6 000b edf6
000000e0: 2204 1c22 0b0c 25fd dbe8 0fd0 0181 0819
000000f0: 0104 1515 f401 f004 f2e4 1cf9 fce6 fdfe
-24 26 -18 14 30 38 10 1
26 -41 46 -27 36 -12 41 -38
-21 16 -42 77 -33 -26 25 -14
-22 43 -17 22 2 48 56 -17
12 -28 45 8 -6 25 32 -21
-7 10 -12 7 9 -5 45 8
-15 -21 -41 -21 13 -27 32 -27
-18 -3 -9 22 33 -3 11 -20
-6 20 46 32 -6 -21 34 2
9 -7 -25 10 34 -26 -28 2
-13 -11 -37 12 14 -39 19 -35
19 19 4 -18 9 -17 43 -23
4 10 -13 -60 -41 -9 -28 46
-34 -9 4 -15 20 -9 -17 33
5 41 -43 -31 -16 -28 8 10
18 19 -1 -17 35 -19 10 45
38 -16 -1 -22 -37 -14 -14 -5
-31 26 -31 34 2 -63 -45 -32
14 25 20 -13 8 34 32 27
26 -6 -22 -36 39 -2 -6 25
12 -15 3 -34 -32 7 12 -8
21 28 -25 14 -41 -39 -6 -21
-20 -21 -46 12 -7 -4 21 -17
-12 27 -58 -42 31 52 1 -31
37 10 0 11 34 17 -4 31
-1 -12 12 -5 4 -50 2 12
-39 -37 -41 -2 -21 16 -14 21
10 41 -14 -10 0 11 -19 -10
34 4 28 34 11 12 37 -3
-37 -24 15 -48 1 -127 8 25
1 4 21 21 -12 1 -16 4
-14 -28 28 -7 -4 -26 -3 -2

model_5/conv2d_85/Conv2D i1 [32, 3, 3, 48]
00000000: 0c43 10f3 1e18 e429 56e4 e9ff 2fe3 03f6
00000010: 05e8 7f1f d4f3 332d 0e23 47fb f0aa 1fd6
00000020: 0afd e4ad 07fb 1412 2818 c4ee 01f8 0cdf
00000030: 050c ede0 0451 fbef 16ed ddcb 122e ef1b
00000040: 094c 3923 0331 6c0b 11fd e929 1ec6 25f0
00000050: 55e8 17b6 f9e2 0336 242b efd2 dffb 2ee6
00000060: cbe1 32de f117 4313 03ee 2429 f922 31e1
00000070: cffc 1a1c c402 1bd8 0629 1fb6 05e1 15eb
00000080: 2fee eb04 f81a 4ffa ed08 aaef c7e2 fcd9
00000090: 02eb 14e5 1318 f22d 04f1 d742 f90f 3017
000000a0: 0413 22f0 dee4 3ec1 2b19 190d 05e5 d6d7
000000b0: d4f5 229d 1504 1b01 123f 1c03 2f1c 2426
000000c0: 2ce8 f6e6 22fb 20fd 202c e1eb 2536 fbed
000000d0: f20a f60d 1720 e6d6 1a13 4d24 2200 e325
000000e0: 18d9 e491 ca0e 2b2f 3d03 0a0a e0ee e2e5
000000f0: ffc9 24bc 0818 29d7 4211 e9cb 06d4 f6e6
12 67 16 -13 30 24 -28 41
86 -28 -23 -1 47 -29 3 -10
5 -24 127 31 -44 -13 51 45
14 35 71 -5 -16 -86 31 -42
10 -3 -28 -83 7 -5 20 18
40 24 -60 -18 1 -8 12 -33
5 12 -19 -32 4 81 -5 -17
22 -19 -35 -53 18 46 -17 27
9 76 57 35 3 49 108 11
17 -3 -23 41 30 -58 37 -16
85 -24 23 -74 -7 -30 3 54
36 43 -17 -46 -33 -5 46 -26
-53 -31 50 -34 -15 23 67 19
3 -18 36 41 -7 34 49 -31
-49 -4 26 28 -60 2 27 -40
6 41 31 -74 5 -31 21 -21
47 -18 -21 4 -8 26 79 -6
-19 8 -86 -17 -57 -30 -4 -39
2 -21 20 -27 19 24 -14 45
4 -15 -41 66 -7 15 48 23
4 19 34 -16 -34 -28 62 -63
43 25 25 13 5 -27 -42 -41
-44 -11 34 -99 21 4 27 1
18 63 28 3 47 28 36 38
44 -24 -10 -26 34 -5 32 -3
32 44 -31 -21 37 54 -5 -19
-14 10 -10 13 23 32 -26 -42
26 19 77 36 34 0 -29 37
24 -39 -28 -111 -54 14 43 47
61 3 10 10 -32 -18 -30 -27
-1 -55 36 -68 8 24 41 -41
66 17 -23 -53 6 -44 -10 -26

model_5/conv2d_transpose_15/conv2d_transpose i1 [32, 2, 2, 32]
00000000: 8a52 ddf5 d1fa 31e5 0329 6e01 dc26 d0e0
00000010: 0327 e8c8 35bc d83f 7f2b ee06 1423 3fe9
00000020: d3f2 2df4 d7a2 2ad3 04ed 13d4 4d2c 5226
00000030: d317 05b9 97c2 e336 dd1e e84a de10 0114
00000040: 26f0 1cea 10d5 2907 c42c b01f 210a 3eeb
00000050: f9cc 3e13 2503 0658 3ace e5fe ffda d8e8
00000060: f2f5 2764 c6d3 0c03 2411 0312 1dcb c4f9
00000070: 20df e20d f525 af49 40e9 f578 ebca f7f4
00000080: ff3a 0f67 1049 db15 f0d5 9669 384f 453a
00000090: 2b0f 0764 f4c5 d22e 12b1 a313 f9e3 45ba
000000a0: 2c40 ea30 2e8d e4d4 50ad cd47 66e6 26ca
000000b0: 49e7 ca1b 2bdd d0f0 e7e3 d8f2 f35b 29f0
000000c0: 1198 bb29 2381 9b3c aff9 dd0e 7ad1 ef39
000000d0: 048e 0a20 5ef1 4945 001a 1bb9 e9fa f901
000000e0: cf3f d35a 5906 fcd9 1d2c 1e35 275d f013
000000f0: f0aa dc5c f221 7044 e338 dffc 8213 701f
-118 82 -35 -11 -47 -6 49 -27
3 41 110 1 -36 38 -48 -32
3 39 -24 -56 53 -68 -40 63
127 43 -18 6 20 35 63 -23
-45 -14 45 -12 -41 -94 42 -45
4 -19 19 -44 77 44 82 38
-45 23 5 -71 -105 -62 -29 54
-35 30 -24 74 -34 16 1 20
38 -16 28 -22 16 -43 41 7
-60 44 -80 31 33 10 62 -21
-7 -52 62 19 37 3 6 88
58 -50 -27 -2 -1 -38 -40 -24
-14 -11 39 100 -58 -45 12 3
36 17 3 18 29 -53 -60 -7
32 -33 -30 13 -11 37 -81 73
64 -23 -11 120 -21 -54 -9 -12
-1 58 15 103 16 73 -37 21
-16 -43 -106 105 56 79 69 58
43 15 7 100 -12 -59 -46 46
18 -79 -93 19 -7 -29 69 -70
44 64 -22 48 46 -115 -28 -44
80 -83 -51 71 102 -26 38 -54
73 -25 -54 27 43 -35 -48 -16
-25 -29 -40 -14 -13 91 41 -16
17 -104 -69 41 35 -127 -101 60
-81 -7 -35 14 122 -47 -17 57
4 -114 10 32 94 -15 73 69
0 26 27 -71 -23 -6 -7 1
-49 63 -45 90 89 6 -4 -39
29 44 30 53 39 93 -16 19
-16 -86 -36 92 -14 33 112 68
-29 56 -33 -4 -126 19 112 31

model_5/conv2d_84/Conv2D i1 [32, 3, 3, 16]
00000000: feef f02c dae7 04f8 1b2a 3311 1713 e420
00000010: e2f4 fb0c fdd7 f41a e1f9 d8ec d3ef f9e3
00000020: eee0 e3f5 27df ee2f f1ed 1416 81e4 f4f5
00000030: 123c 05ce 14ce 1537 ec05 18f1 0330 d4f8
00000040: 3f03 f438 f1ca 3c28 04ef f7fc 2202 0e27
00000050: 182d 15fc 4afc 0f0e 44f8 f8f2 041e eae4
00000060: f5f4 e412 f318 0731 0a3d d823 2c00 0503
00000070: 0d35 bd23 06e6 fd40 f845 fa11 1def df22
00000080: 2e21 e1df dfcc f204 310b 0e1c 020a 15fb
00000090: 3034 f2f3 bd4a 9239 02d2 2b1a e4f3 cf40
000000a0: fc34 a20d c000 d71a 0ffc f017 ee39 dee6
000000b0: 01f7 becd fdf6 c603 25ce 2320 7f33 e334
000000c0: caef f546 ea2a 222c c7f2 262d 9d19 fedd
000000d0: eab8 15dd 0f29 1a31 3b28 f910 e9f1 d3e7
000000e0: 1815 400e f4f1 e000 e90b f7fb dbc5 39d9
000000f0: a1df 3806 6819 abe6 a70b 36eb 2c1f 28c5
-2 -17 -16 44 -38 -25 4 -8
27 42 51 17 23 19 -28 32
-30 -12 -5 12 -3 -41 -12 26
-31 -7 -40 -20 -45 -17 -7 -29
-18 -32 -29 -11 39 -33 -18 47
-15 -19 20 22 -127 -28 -12 -11
18 60 5 -50 20 -50 21 55
-20 5 24 -15 3 48 -44 -8
63 3 -12 56 -15 -54 60 40
4 -17 -9 -4 34 2 14 39
24 45 21 -4 74 -4 15 14
68 -8 -8 -14 4 30 -22 -28
-11 -12 -28 18 -13 24 7 49
10 61 -40 35 44 0 5 3
13 53 -67 35 6 -26 -3 64
-8 69 -6 17 29 -17 -33 34
46 33 -31 -33 -33 -52 -14 4
49 11 14 28 2 10 21 -5
48 52 -14 -13 -67 74 -110 57
2 -46 43 26 -28 -13 -49 64
-4 52 -94 13 -64 0 -41 26
15 -4 -16 23 -18 57 -34 -26
1 -9 -66 -51 -3 -10 -58 3
37 -50 35 32 127 51 -29 52
-54 -17 -11 70 -22 42 34 44
-57 -14 38 45 -99 25 -2 -35
-22 -72 21 -35 15 41 26 49
59 40 -7 16 -23 -15 -45 -25
24 21 64 14 -12 -15 -32 0
-23 11 -9 -5 -37 -59 57 -39
-95 -33 56 6 104 25 -85 -26
-89 11 54 -21 44 31 40 -59

model_5/conv2d_83/Conv2D i1 [16, 3, 3, 16]
00000000: f631 06e0 44e0 ccd0 0ec8 d431 05db 2211
00000010: e926 09de 0125 e5dc 0b0f 3bf6 10c8 16fc
00000020: 17f4 26f5 db2c ebde 1fd2 e31e 4d12 d7f9
00000030: e7e9 47fd c9f4 bbf8 1e10 2217 12df 40e4
00000040: d927 1420 e8f2 bbc9 07d8 27e9 1a20 2519
00000050: 1a24 d304 14e2 aeda f9ce d9fe d60a 4a06
00000060: 0921 c8e4 d581 c216 4f29 f5ee 2912 1a16
00000070: 1eec 1cf7 0882 0e18 50c8 1edf 27db 41ab
00000080: 0b2a 01be 0c06 1aec 44d8 2d3b fbdb 290f
00000090: eb21 2be9 f404 ecba 3c29 d939 e2fa 6a18
000000a0: 1bdb 100b c13d f8b0 956a a141 1db9 1fbe
000000b0: 19d1 c710 c5dd 98fc fbde ea18 cf01 08fb
000000c0: 1321 1ef7 3cd2 2251 1ebb 14f0 4de7 40e7
000000d0: 1cf6 bdc0 2221 2df9 e5ee 0fd9 3db1 26ba
000000e0: 5ef0 b9c8 c6c9 e23c dd43 fcb0 2df2 2fda
000000f0: 7351 d349 da12 16ed b1ed 3541 262f 4e2e
-10 49 6 -32 68 -32 -52 -48
14 -56 -44 49 5 -37 34 17
-23 38 9 -34 1 37 -27 -36
11 15 59 -10 16 -56 22 -4
23 -12 38 -11 -37 44 -21 -34
31 -46 -29 30 77 18 -41 -7
-25 -23 71 -3 -55 -12 -69 -8
30 16 34 23 18 -33 64 -28
-39 39 20 32 -24 -14 -69 -55
7 -40 39 -23 26 32 37 25
26 36 -45 4 20 -30 -82 -38
-7 -50 -39 -2 -42 10 74 6
9 33 -56 -28 -43 -127 -62 22
79 41 -11 -18 41 18 26 22
30 -20 28 -9 8 -126 14 24
80 -56 30 -33 39 -37 65 -85
11 42 1 -66 12 6 26 -20
68 -40 45 59 -5 -37 41 15
-21 33 43 -23 -12 4 -20 -70
60 41 -39 57 -30 -6 106 24
27 -37 16 11 -63 61 -8 -80
-107 106 -95 65 29 -71 31 -66
25 -47 -57 16 -59 -35 -104 -4
-5 -34 -22 24 -49 1 8 -5
19 33 30 -9 60 -46 34 81
30 -69 20 -16 77 -25 64 -25
28 -10 -67 -64 34 33 45 -7
-27 -18 15 -39 61 -79 38 -70
94 -16 -71 -56 -58 -55 -30 60
-35 67 -4 -80 45 -14 47 -38
115 81 -45 73 -38 18 22 -19
-79 -19 53 65 38 47 78 46

model_5/conv2d_82/Conv2D i1 [16, 3, 3, 8]
00000000: f942 3932 3448 282f 09c2 efdc 0905 efc9
00000010: e8fa eed6 0a19 4417 8cfe 4715 150d 5e0b
00000020: 7fe0 f5be d506 c901 3e19 e727 e93c 1a0c
00000030: a735 35cb 08c0 250b 3f00 dbd6 c64c 2dee
00000040: 3a0f e4d5 d041 12cc 0b50 1947 f7d5 fee6
00000050: 42d9 2890 2ea7 4135 61ca 08ff 5da2 06fc
00000060: fd3e df3b d6e2 49be b8c1 5dfa 6f81 4cf9
00000070: f15c ecd9 2097 3f48 e415 52dd 260b a5f6
00000080: b225 7b03 35c8 c1b3 e758 f0d0 4b15 b12f
00000090: a103 071e 2689 f60e b9f0 1632 2881 cdd5
000000a0: 0237 0f03 d790 ba23 b9d0 ee13 e2b1 d6e7
000000b0: f814 d601 e7c5 0201 14e9 18d7 f7fa ede7
000000c0: c4ef 0806 01c6 14cd 002f 302a 1fd1 f210
000000d0: fd26 fcde 38f3 12f8 6cf9 d20a 2437 b5ae
000000e0: 3f09 e836 f302 3416 1c41 db3d 13c3 0e2a
000000f0: 11c2 ab07 4381 b141 154d 3148 31d5 156c
-7 66 57 50 52 72 40 47
9 -62 -17 -36 9 5 -17 -55
-24 -6 -18 -42 10 25 68 23
-116 -2 71 21 21 13 94 11
127 -32 -11 -66 -43 6 -55 1
62 25 -25 39 -23 60 26 12
-89 53 53 -53 8 -64 37 11
63 0 -37 -42 -58 76 45 -18
58 15 -28 -43 -48 65 18 -52
11 80 25 71 -9 -43 -2 -26
66 -39 40 -112 46 -89 65 53
97 -54 8 -1 93 -94 6 -4
-3 62 -33 59 -42 -30 73 -66
-72 -63 93 -6 111 -127 76 -7
-15 92 -20 -39 32 -105 63 72
-28 21 82 -35 38 11 -91 -10
-78 37 123 3 53 -56 -63 -77
-25 88 -16 -48 75 21 -79 47
-95 3 7 30 38 -119 -10 14
-71 -16 22 50 40 -127 -51 -43
2 55 15 3 -41 -112 -70 35
-71 -48 -18 19 -30 -79 -42 -25
-8 20 -42 1 -25 -59 2 1
20 -23 24 -41 -9 -6 -19 -25
-60 -17 8 6 1 -58 20 -51
0 47 48 42 31 -47 -14 16
-3 38 -4 -34 56 -13 18 -8
108 -7 -46 10 36 55 -75 -82
63 9 -24 54 -13 2 52 22
28 65 -37 61 19 -61 14 42
17 -62 -85 7 67 -127 -79 65
21 77 49 72 49 -43 21 108

model_5/conv2d_81/Conv2D i1 [8, 3, 3, 8]
00000000: 33f8 e9df fcf7 c0cc 0cc4 c821 fa2c f9e6
00000010: ddcb cff1 345f d852 1d0f 020f 5721 f2f1
00000020: 0bc3 edd9 083f fbf5 d6ae 81f6 2901 cd62
00000030: 1bc4 19ed fd25 150b 0ccf c6d6 27ce d907
00000040: ff97 a413 1e18 22f6 c6ec dd21 bcb6 eef8
00000050: 1cba cf51 a19d aff4 e9f8 da29 9eac 2c4f
00000060: 36fe f741 f1ff b408 21e8 3c3f 0181 1029
00000070: f5bc d336 c8a0 1510 0ce9 071e 0d2d f91e
00000080: d112 0114 04b4 c3e6 21aa 0c22 2fbe 3a45
00000090: f255 e103 1e27 e4e7 227f 3e22 ed3d 0716
000000a0: ea33 2700 060c cad8 fc45 0cf8 eb26 bc11
000000b0: 1649 2942 fd45 231e def3 0417 c00f 024e
000000c0: 3e52 2557 e90a ba3b 1555 314d 0113 c33a
000000d0: 16ea 0c0f 1a1b c531 fc00 03e5 f1d3 eeea
000000e0: ee0f 0219 fcba 090b f519 f3fe e9e2 de06
000000f0: f00a 17f4 0496 e714 f91d f3e9 0581 0020
51 -8 -23 -33 -4 -9 -64 -52
12 -60 -56 33 -6 44 -7 -26
-35 -53 -49 -15 52 95 -40 82
29 15 2 15 87 33 -14 -15
11 -61 -19 -39 8 63 -5 -11
-42 -82 -127 -10 41 1 -51 98
27 -60 25 -19 -3 37 21 11
12 -49 -58 -42 39 -50 -39 7
-1 -105 -92 19 30 24 34 -10
-58 -20 -35 33 -68 -74 -18 -8
28 -70 -49 81 -95 -99 -81 -12
-23 -8 -38 41 -98 -84 44 79
54 -2 -9 65 -15 -1 -76 8
33 -24 60 63 1 -127 16 41
-11 -68 -45 54 -56 -96 21 16
12 -23 7 30 13 45 -7 30
-47 18 1 20 4 -76 -61 -26
33 -86 12 34 47 -66 58 69
-14 85 -31 3 30 39 -28 -25
34 127 62 34 -19 61 7 22
-22 51 39 0 6 12 -54 -40
-4 69 12 -8 -21 38 -68 17
22 73 41 66 -3 69 35 30
-34 -13 4 23 -64 15 2 78
62 82 37 87 -23 10 -70 59
21 85 49 77 1 19 -61 58
22 -22 12 15 26 27 -59 49
-4 0 3 -27 -15 -45 -18 -22
-18 15 2 25 -4 -70 9 11
-11 25 -13 -2 -23 -30 -34 6
-16 10 23 -12 4 -106 -25 20
-7 29 -13 -23 5 -127 0 32

model_5/conv2d_80/Conv2D i1 [8, 3, 3, 1]
00000000: 5068 814d d82d 8172 9e7f 5bf2 519f ec86
00000010: ea91 2e97 827f 1111 b664 04ff ad20 663c
00000020: 3f5e 7fcf a5c6 0a81 cf61 55d1 0dcf af7f
00000030: abb6 cd0a 715d 81e6 904e d6b9 beea 55bd
00000040: 6669 dd52 81d8 1f4d
80 104 -127 77 -40 45 -127 114
-98 127 91 -14 81 -97 -20 -122
-22 -111 46 -105 -126 127 17 17
-74 100 4 -1 -83 32 102 60
63 94 127 -49 -91 -58 10 -127
-49 97 85 -47 13 -49 -81 127
-85 -74 -51 10 113 93 -127 -26
-112 78 -42 -71 -66 -22 85 -67
102 105 -35 82 -127 -40 31 77
