Models/Temporal-MicroPyD-Net/peluoso_pyramid_LSTM_eigen_real_32.tflite (tflite, 80352 bytes, 13 tensors)

model_14/conv2d_198/Conv2D i1 [1, 3, 3, 32] scale=0.002622559 zero_point=0
0	0xd4	-0.115392596
1	0x35	0.13899563
2	0xff	-0.002622559
3	0x2f	0.123260275
4	0x12	0.047206063
5	0x2b	0.112770036
6	0xe7	-0.06556398
7	0x0a	0.02622559
8	0xaf	-0.21242727
9	0xfe	-0.005245118
10	0xe9	-0.060318857
11	0x0d	0.03409327
12	0x2c	0.115392596
13	0x42	0.1730889
14	0x2c	0.115392596
15	0x16	0.057696298
16	0xec	-0.05245118
17	0xe9	-0.060318857
18	0xff	-0.002622559
19	0xc1	-0.16522121
20	0x20	0.08392189
21	0x22	0.08916701
22	0x04	0.010490236
23	0x33	0.13375051
24	0x18	0.06294142
25	0x3d	0.1599761
26	0xe7	-0.06556398
27	0x19	0.06556398
28	0x09	0.023603031
29	0xed	-0.04982862
30	0x1e	0.07867677
31	0x2c	0.115392596
32	0xf2	-0.036715824
33	0xfe	-0.005245118
34	0x36	0.14161818
35	0x0d	0.03409327
36	0x2a	0.110147476
37	0x32	0.13112795
38	0xd1	-0.123260275
39	0xf4	-0.03147071
40	0xe9	-0.060318857
41	0x3a	0.15210842
42	0xf0	-0.041960943
43	0xfc	-0.010490236
44	0x23	0.091789566
45	0x33	0.13375051
46	0xdd	-0.091789566
47	0xf8	-0.020980472
48	0x08	0.020980472
49	0x79	0.31732965
50	0xd6	-0.110147476
51	0x81	-0.333065
52	0xf0	-0.041960943
53	0xda	-0.09965724
54	0x07	0.018357912
55	0x11	0.044583503
56	0x3f	0.16522121
57	0x33	0.13375051
58	0x01	0.002622559
59	0xe7	-0.06556398
60	0xd2	-0.120637715
61	0x16	0.057696298
62	0x0f	0.039338384
63	0x1d	0.07605421
64	0x53	0.2176724
65	0x2a	0.110147476
66	0x19	0.06556398
67	0x26	0.09965724
68	0xef	-0.044583503
69	0x1a	0.06818654
70	0xe8	-0.06294142
71	0x08	0.020980472
72	0xe3	-0.07605421
73	0xfc	-0.010490236
74	0xca	-0.14161818
75	0x10	0.041960943
76	0x2f	0.123260275
77	0xd3	-0.118015155
78	0xec	-0.05245118
79	0xfb	-0.013112795
80	0xef	-0.044583503
81	0x3a	0.15210842
82	0x1c	0.07343165
83	0xf7	-0.023603031
84	0xfb	-0.013112795
85	0xbc	-0.17833401
86	0x0c	0.03147071
87	0x04	0.010490236
88	0x2b	0.112770036
89	0x21	0.08654445
90	0x34	0.13637307
91	0xdd	-0.091789566
92	0xe0	-0.08392189
93	0xe5	-0.07080909
94	0x1c	0.07343165
95	0x22	0.08916701
96	0xb4	-0.19931448
97	0x1a	0.06818654
98	0xd4	-0.115392596
99	0x31	0.1285054
100	0x29	0.10752492
101	0xdb	-0.097034685
102	0xf9	-0.018357912
103	0xee	-0.047206063
104	0xbb	-0.18095657
105	0x21	0.08654445
106	0x1e	0.07867677
107	0xde	-0.08916701
108	0x28	0.10490236
109	0x35	0.13899563
110	0x11	0.044583503
111	0xe7	-0.06556398
112	0x02	0.005245118
113	0x0c	0.03147071
114	0xfa	-0.015735354
115	0xc0	-0.16784377
116	0x0a	0.02622559
117	0x2a	0.110147476
118	0xc6	-0.15210842
119	0x18	0.06294142
120	0xf1	-0.039338384
121	0x40	0.16784377
122	0x36	0.14161818
123	0xe2	-0.07867677
124	0xb8	-0.18882425
125	0x03	0.007867677
126	0x0b	0.028848149
127	0x34	0.13637307
128	0xec	-0.05245118
129	0x10	0.041960943
130	0xf1	-0.039338384
131	0xf2	-0.036715824
132	0xf8	-0.020980472
133	0x0d	0.03409327
134	0xd6	-0.110147476
135	0x2d	0.118015155
136	0xc6	-0.15210842
137	0x02	0.005245118
138	0x02	0.005245118
139	0xe1	-0.08129933
140	0x36	0.14161818
141	0x91	-0.29110405
142	0xf9	-0.018357912
143	0xf3	-0.03409327
144	0x0f	0.039338384
145	0x5f	0.24914311
146	0xf0	-0.041960943
147	0x47	0.18620169
148	0x2e	0.120637715
149	0xf2	-0.036715824
150	0x2d	0.118015155
151	0xf3	-0.03409327
152	0x1e	0.07867677
153	0xf8	-0.020980472
154	0x27	0.1022798
155	0xcd	-0.13375051
156	0xd5	-0.112770036
157	0xc5	-0.15473098
158	0x02	0.005245118
159	0x21	0.08654445
160	0xee	-0.047206063
161	0xdd	-0.091789566
162	0x23	0.091789566
163	0x1a	0.06818654
164	0x09	0.023603031
165	0x1a	0.06818654
166	0x18	0.06294142
167	0xef	-0.044583503
168	0xfa	-0.015735354
169	0x08	0.020980472
170	0xd5	-0.112770036
171	0xd6	-0.110147476
172	0x2d	0.118015155
173	0x1e	0.07867677
174	0x17	0.060318857
175	0x36	0.14161818
176	0xce	-0.13112795
177	0x49	0.19144681
178	0x0e	0.036715824
179	0x21	0.08654445
180	0xe3	-0.07605421
181	0xba	-0.18357913
182	0x34	0.13637307
183	0xcb	-0.13899563
184	0x0e	0.036715824
185	0xfc	-0.010490236
186	0x32	0.13112795
187	0x1c	0.07343165
188	0x0f	0.039338384
189	0xb4	-0.19931448
190	0x22	0.08916701
191	0x10	0.041960943
192	0xf9	-0.018357912
193	0x31	0.1285054
194	0xe6	-0.06818654
195	0x1c	0.07343165
196	0x28	0.10490236
197	0x01	0.002622559
198	0x36	0.14161818
199	0x3a	0.15210842
200	0xcf	-0.1285054
201	0x14	0.05245118
202	0x40	0.16784377
203	0x31	0.1285054
204	0xfa	-0.015735354
205	0xf4	-0.03147071
206	0x02	0.005245118
207	0x20	0.08392189
208	0xdf	-0.08654445
209	0x0c	0.03147071
210	0x2a	0.110147476
211	0x0c	0.03147071
212	0xf8	-0.020980472
213	0xfb	-0.013112795
214	0xcf	-0.1285054
215	0x07	0.018357912
216	0xd0	-0.12588283
217	0x19	0.06556398
218	0x1a	0.06818654
219	0xdf	-0.08654445
220	0xe7	-0.06556398
221	0xdb	-0.097034685
222	0x3a	0.15210842
223	0x08	0.020980472
224	0x50	0.20980471
225	0xfe	-0.005245118
226	0x00	0.0
227	0x26	0.09965724
228	0x14	0.05245118
229	0xf4	-0.03147071
230	0xfa	-0.015735354
231	0x48	0.18882425
232	0xe3	-0.07605421
233	0x19	0.06556398
234	0x3a	0.15210842
235	0xef	-0.044583503
236	0x1d	0.07605421
237	0x34	0.13637307
238	0x25	0.097034685
239	0xf9	-0.018357912
240	0xcf	-0.1285054
241	0x04	0.010490236
242	0xd4	-0.115392596
243	0xd7	-0.10752492
244	0x16	0.057696298
245	0x26	0.09965724
246	0x22	0.08916701
247	0xe1	-0.08129933
248	0xd4	-0.115392596
249	0x11	0.044583503
250	0x1f	0.08129933
251	0x15	0.055073738
252	0xfc	-0.010490236
253	0x05	0.013112795
254	0x28	0.10490236
255	0xfa	-0.015735354

model_14/conv2d_197/Conv2D i1 [32, 3, 3, 32]
0	0x17	23
1	0x1b	27
2	0xec	-20
3	0x4d	77
4	0x18	24
5	0xec	-20
6	0x02	2
7	0x36	54
8	0xec	-20
9	0xef	-17
10	0x5f	95
11	0xf3	-13
12	0xf7	-9
13	0x00	0
14	0xff	-1
15	0x06	6
16	0x13	19
17	0x1d	29
18	0xe5	-27
19	0x0e	14
20	0x24	36
21	0xf0	-16
22	0x18	24
23	0x08	8
24	0xf0	-16
25	0x31	49
26	0x16	22
27	0xf6	-10
28	0xf9	-7
29	0x19	25
30	0xe3	-29
31	0xf3	-13
32	0xeb	-21
33	0xf9	-7
34	0x28	40
35	0x15	21
36	0xf0	-16
37	0xba	-70
38	0xd4	-44
39	0x1d	29
40	0x07	7
41	0xe0	-32
42	0x3d	61
43	0xf0	-16
44	0x07	7
45	0x0f	15
46	0x0f	15
47	0x0f	15
48	0x03	3
49	0xea	-22
50	0x1c	28
51	0xf4	-12
52	0x09	9
53	0xf3	-13
54	0x2b	43
55	0x10	16
56	0xf0	-16
57	0x0a	10
58	0x05	5
59	0x03	3
60	0x04	4
61	0xfa	-6
62	0xe5	-27
63	0xf9	-7
64	0xf4	-12
65	0x09	9
66	0x01	1
67	0xf6	-10
68	0xe7	-25
69	0x0b	11
70	0xd4	-44
71	0xec	-20
72	0x5c	92
73	0xf0	-16
74	0x2d	45
75	0xe2	-30
76	0x0e	14
77	0xe3	-29
78	0x05	5
79	0xff	-1
80	0x0e	14
81	0xfd	-3
82	0x2f	47
83	0xe5	-27
84	0xd8	-40
85	0x00	0
86	0x2c	44
87	0xff	-1
88	0xf0	-16
89	0x2d	45
90	0xdc	-36
91	0x11	17
92	0xdc	-36
93	0x28	40
94	0xe7	-25
95	0xde	-34
96	0x1b	27
97	0xfe	-2
98	0x14	20
99	0x0a	10
100	0x18	24
101	0xde	-34
102	0xf4	-12
103	0xfc	-4
104	0xf8	-8
105	0xf3	-13
106	0x1f	31
107	0x03	3
108	0xe4	-28
109	0x20	32
110	0x16	22
111	0xfc	-4
112	0x04	4
113	0xf7	-9
114	0x24	36
115	0xf5	-11
116	0x3c	60
117	0x2c	44
118	0x1c	28
119	0xfc	-4
120	0x11	17
121	0x44	68
122	0x0c	12
123	0x2d	45
124	0xff	-1
125	0xff	-1
126	0xff	-1
127	0xe3	-29
128	0x14	20
129	0xf5	-11
130	0xf5	-11
131	0x11	17
132	0x04	4
133	0xd1	-47
134	0x99	-103
135	0x0b	11
136	0xe1	-31
137	0x12	18
138	0x1b	27
139	0xff	-1
140	0x0d	13
141	0x04	4
142	0xf0	-16
143	0xf7	-9
144	0xe3	-29
145	0xfc	-4
146	0x3d	61
147	0xff	-1
148	0x0f	15
149	0x1f	31
150	0xf2	-14
151	0xfe	-2
152	0x13	19
153	0x20	32
154	0xf3	-13
155	0x13	19
156	0x07	7
157	0xfe	-2
158	0xe7	-25
159	0xf4	-12
160	0x17	23
161	0x05	5
162	0xe0	-32
163	0xc2	-62
164	0x1a	26
165	0xe4	-28
166	0xd5	-43
167	0xfb	-5
168	0x9d	-99
169	0x0d	13
170	0x07	7
171	0x02	2
172	0x28	40
173	0xfd	-3
174	0xdb	-37
175	0xf7	-9
176	0x10	16
177	0xf2	-14
178	0x21	33
179	0x0c	12
180	0xdb	-37
181	0xe7	-25
182	0xcf	-49
183	0xec	-20
184	0xf8	-8
185	0x47	71
186	0xea	-22
187	0x0c	12
188	0x09	9
189	0x90	-112
190	0xe0	-32
191	0x10	16
192	0x21	33
193	0x02	2
194	0xf1	-15
195	0x16	22
196	0xfd	-3
197	0xcd	-51
198	0xe1	-31
199	0xe4	-28
200	0xe4	-28
201	0xf3	-13
202	0x42	66
203	0x1f	31
204	0xb7	-73
205	0x1b	27
206	0xfc	-4
207	0xf2	-14
208	0x42	66
209	0xe8	-24
210	0x1a	26
211	0x0c	12
212	0x04	4
213	0x19	25
214	0xd8	-40
215	0x19	25
216	0x0b	11
217	0x30	48
218	0x04	4
219	0x08	8
220	0x1c	28
221	0x31	49
222	0xfd	-3
223	0xee	-18
224	0x27	39
225	0xea	-22
226	0x0e	14
227	0xca	-54
228	0x0f	15
229	0x0a	10
230	0xda	-38
231	0xdd	-35
232	0xa1	-95
233	0x0a	10
234	0x03	3
235	0x37	55
236	0xed	-19
237	0xf8	-8
238	0xf2	-14
239	0xe6	-26
240	0x19	25
241	0xf5	-11
242	0xf5	-11
243	0xe7	-25
244	0xfb	-5
245	0x04	4
246	0xe3	-29
247	0x1e	30
248	0xf2	-14
249	0x14	20
250	0xe6	-26
251	0x0b	11
252	0x05	5
253	0xe4	-28
254	0xd3	-45
255	0xdc	-36

model_14/conv2d_196/Conv2D i1 [32, 3, 3, 40]
0	0x77	119
1	0xbf	-65
2	0x48	72
3	0x81	-127
4	0x98	-104
5	0xfc	-4
6	0xb3	-77
7	0x4a	74
8	0x29	41
9	0xcf	-49
10	0xcd	-51
11	0xb0	-80
12	0x02	2
13	0xe6	-26
14	0x0c	12
15	0x0e	14
16	0xa6	-90
17	0xc4	-60
18	0xeb	-21
19	0x0f	15
20	0x11	17
21	0xb1	-79
22	0xce	-50
23	0x33	51
24	0x89	-119
25	0xf2	-14
26	0x02	2
27	0xf0	-16
28	0xc6	-58
29	0xc6	-58
30	0x33	51
31	0xac	-84
32	0x24	36
33	0x05	5
34	0x38	56
35	0xf5	-11
36	0xdd	-35
37	0xbc	-68
38	0x20	32
39	0x13	19
40	0x23	35
41	0x15	21
42	0xef	-17
43	0xb4	-76
44	0xbd	-67
45	0x3e	62
46	0x0e	14
47	0xd5	-43
48	0x39	57
49	0xdd	-35
50	0x04	4
51	0xd2	-46
52	0x2e	46
53	0x08	8
54	0xe9	-23
55	0x3f	63
56	0xdf	-33
57	0xfd	-3
58	0x35	53
59	0x3c	60
60	0x31	49
61	0xdf	-33
62	0xf3	-13
63	0xcd	-51
64	0x05	5
65	0x35	53
66	0xe7	-25
67	0xd0	-48
68	0x48	72
69	0xb5	-75
70	0x32	50
71	0x17	23
72	0xd1	-47
73	0xd5	-43
74	0x31	49
75	0xf2	-14
76	0xf1	-15
77	0xf5	-11
78	0x06	6
79	0xc8	-56
80	0x39	57
81	0x35	53
82	0xd3	-45
83	0xab	-85
84	0xf2	-14
85	0x0a	10
86	0x48	72
87	0x42	66
88	0x0c	12
89	0x09	9
90	0xcf	-49
91	0xfc	-4
92	0x02	2
93	0xd9	-39
94	0xaa	-86
95	0x4a	74
96	0xd5	-43
97	0x1e	30
98	0xfe	-2
99	0x0d	13
100	0xb2	-78
101	0xd3	-45
102	0xb8	-72
103	0x1f	31
104	0x14	20
105	0x40	64
106	0x38	56
107	0x25	37
108	0x0d	13
109	0xef	-17
110	0x11	17
111	0xc6	-58
112	0xc3	-61
113	0x31	49
114	0xc4	-60
115	0xd5	-43
116	0xca	-54
117	0xe6	-26
118	0xfb	-5
119	0xf9	-7
120	0x71	113
121	0x8d	-115
122	0x3e	62
123	0x45	69
124	0xfb	-5
125	0xeb	-21
126	0xd8	-40
127	0x57	87
128	0xe2	-30
129	0xef	-17
130	0xe8	-24
131	0x0f	15
132	0xcf	-49
133	0x30	48
134	0x03	3
135	0xee	-18
136	0xf7	-9
137	0xe1	-31
138	0x14	20
139	0x1b	27
140	0x4b	75
141	0xdc	-36
142	0xdb	-37
143	0x1c	28
144	0xc1	-63
145	0x0b	11
146	0x16	22
147	0x46	70
148	0xd9	-39
149	0x1f	31
150	0x2b	43
151	0xde	-34
152	0x09	9
153	0x0e	14
154	0xdd	-35
155	0xc2	-62
156	0xe1	-31
157	0x07	7
158	0x26	38
159	0x44	68
160	0xda	-38
161	0x1f	31
162	0x12	18
163	0x2c	44
164	0x0e	14
165	0x31	49
166	0x08	8
167	0x11	17
168	0xbe	-66
169	0xd0	-48
170	0xb4	-76
171	0xe3	-29
172	0x2f	47
173	0xdb	-37
174	0x2b	43
175	0x42	66
176	0xfe	-2
177	0x0d	13
178	0xdb	-37
179	0x0a	10
180	0x14	20
181	0xfb	-5
182	0x03	3
183	0x42	66
184	0xd5	-43
185	0x29	41
186	0x3a	58
187	0xd2	-46
188	0xda	-38
189	0x16	22
190	0xcc	-52
191	0xfe	-2
192	0x3f	63
193	0x37	55
194	0x30	48
195	0x62	98
196	0x35	53
197	0x01	1
198	0x99	-103
199	0xea	-22
200	0xf8	-8
201	0xc3	-61
202	0xdd	-35
203	0x28	40
204	0xe1	-31
205	0xc6	-58
206	0xdb	-37
207	0x4d	77
208	0xe8	-24
209	0x31	49
210	0xd5	-43
211	0xbb	-69
212	0x2d	45
213	0xd8	-40
214	0xcc	-52
215	0x0d	13
216	0xde	-34
217	0xee	-18
218	0x30	48
219	0xf3	-13
220	0xb7	-73
221	0x11	17
222	0x09	9
223	0x24	36
224	0xf6	-10
225	0xf0	-16
226	0x4e	78
227	0x40	64
228	0x01	1
229	0xed	-19
230	0xc8	-56
231	0xb3	-77
232	0xc1	-63
233	0xd5	-43
234	0x25	37
235	0xfa	-6
236	0xce	-50
237	0xe6	-26
238	0xb9	-71
239	0x29	41
240	0x33	51
241	0x08	8
242	0xe1	-31
243	0xd9	-39
244	0x17	23
245	0x32	50
246	0x02	2
247	0xe6	-26
248	0xe2	-30
249	0x34	52
250	0xfd	-3
251	0x9f	-97
252	0x00	0
253	0x22	34
254	0xdb	-37
255	0xc5	-59

model_14/conv2d_transpose_39/conv2d_transpose i1 [32, 2, 2, 16]
0	0x35	53
1	0x04	4
2	0xd2	-46
3	0x19	25
4	0x0c	12
5	0x4d	77
6	0x23	35
7	0x3b	59
8	0xe9	-23
9	0xf0	-16
10	0xda	-38
11	0x56	86
12	0xc9	-55
13	0x1e	30
14	0xea	-22
15	0x34	52
16	0x7f	127
17	0xdf	-33
18	0xdc	-36
19	0x31	49
20	0xfb	-5
21	0x2f	47
22	0x27	39
23	0xf8	-8
24	0x20	32
25	0x56	86
26	0xdc	-36
27	0x02	2
28	0xbc	-68
29	0x04	4
30	0x2c	44
31	0x11	17
32	0x5b	91
33	0x45	69
34	0xf5	-11
35	0xf3	-13
36	0x06	6
37	0x16	22
38	0xf2	-14
39	0xd9	-39
40	0x30	48
41	0x1b	27
42	0xaf	-81
43	0x0b	11
44	0xf2	-14
45	0x39	57
46	0x39	57
47	0xf2	-14
48	0x5e	94
49	0x52	82
50	0xf4	-12
51	0xdb	-37
52	0xd5	-43
53	0xca	-54
54	0xe2	-30
55	0x6e	110
56	0xb9	-71
57	0xf5	-11
58	0x94	-108
59	0x1e	30
60	0xbe	-66
61	0xbb	-69
62	0xe8	-24
63	0x49	73
64	0xed	-19
65	0xd3	-45
66	0x0d	13
67	0x5a	90
68	0xd5	-43
69	0xdb	-37
70	0xb2	-78
71	0xe7	-25
72	0x17	23
73	0x6e	110
74	0x8a	-118
75	0xcd	-51
76	0x26	38
77	0x37	55
78	0xe2	-30
79	0xee	-18
80	0x04	4
81	0xaa	-86
82	0x8b	-117
83	0xd2	-46
84	0x31	49
85	0xe1	-31
86	0x07	7
87	0x4a	74
88	0x19	25
89	0x24	36
90	0xd4	-44
91	0x2f	47
92	0xef	-17
93	0xd6	-42
94	0x64	100
95	0x12	18
96	0x29	41
97	0x27	39
98	0xeb	-21
99	0xf4	-12
100	0xb9	-71
101	0xfc	-4
102	0xbf	-65
103	0xf2	-14
104	0x44	68
105	0x7f	127
106	0xfa	-6
107	0x03	3
108	0xcc	-52
109	0x05	5
110	0xab	-85
111	0x11	17
112	0x29	41
113	0x14	20
114	0xfa	-6
115	0x2c	44
116	0xbf	-65
117	0xd1	-47
118	0x0a	10
119	0xd8	-40
120	0x0a	10
121	0x28	40
122	0xeb	-21
123	0x4b	75
124	0x22	34
125	0x41	65
126	0xcf	-49
127	0x29	41
128	0x81	-127
129	0x05	5
130	0xfb	-5
131	0x3a	58
132	0x1e	30
133	0xea	-22
134	0x2e	46
135	0x1b	27
136	0xd0	-48
137	0xa2	-94
138	0x56	86
139	0xcc	-52
140	0xf1	-15
141	0x1e	30
142	0x02	2
143	0xd2	-46
144	0x12	18
145	0xf8	-8
146	0x25	37
147	0xca	-54
148	0x2d	45
149	0xea	-22
150	0x08	8
151	0xd8	-40
152	0xe3	-29
153	0x85	-123
154	0x09	9
155	0xff	-1
156	0x0a	10
157	0xed	-19
158	0xce	-50
159	0xdc	-36
160	0xed	-19
161	0xdc	-36
162	0x0d	13
163	0x2b	43
164	0xeb	-21
165	0xd9	-39
166	0xe0	-32
167	0x33	51
168	0x1a	26
169	0x8d	-115
170	0x5c	92
171	0xbd	-67
172	0x05	5
173	0x18	24
174	0x03	3
175	0x4a	74
176	0xc5	-59
177	0x11	17
178	0x0e	14
179	0xed	-19
180	0x07	7
181	0x37	55
182	0x2c	44
183	0x00	0
184	0x0f	15
185	0x0b	11
186	0x37	55
187	0xd1	-47
188	0xce	-50
189	0xf6	-10
190	0xd4	-44
191	0x09	9
192	0xf5	-11
193	0xda	-38
194	0xe2	-30
195	0x51	81
196	0xd5	-43
197	0x98	-104
198	0x36	54
199	0x34	52
200	0x0b	11
201	0x3e	62
202	0x39	57
203	0x19	25
204	0x2b	43
205	0xe2	-30
206	0xb3	-77
207	0xf6	-10
208	0xe9	-23
209	0xc7	-57
210	0xf7	-9
211	0x25	37
212	0x39	57
213	0x99	-103
214	0x2a	42
215	0xc1	-63
216	0x00	0
217	0xc9	-55
218	0x3e	62
219	0xea	-22
220	0x32	50
221	0x16	22
222	0x02	2
223	0x3c	60
224	0x8d	-115
225	0xc0	-64
226	0xf5	-11
227	0xf0	-16
228	0x21	33
229	0xe7	-25
230	0x24	36
231	0xfc	-4
232	0xec	-20
233	0xc8	-56
234	0x0c	12
235	0xd3	-45
236	0xc4	-60
237	0xd3	-45
238	0xe6	-26
239	0xc8	-56
240	0x81	-127
241	0xb7	-73
242	0xc8	-56
243	0xd6	-42
244	0x42	66
245	0xfc	-4
246	0x3d	61
247	0xfd	-3
248	0xc2	-62
249	0xdf	-33
250	0xff	-1
251	0x36	54
252	0xf1	-15
253	0x23	35
254	0xca	-54
255	0x05	5

model_14/conv2d_195/Conv2D i1 [16, 3, 3, 16]
0	0x1b	27
1	0x1b	27
2	0xd5	-43
3	0x38	56
4	0xd8	-40
5	0x34	52
6	0xb5	-75
7	0xce	-50
8	0xdd	-35
9	0xca	-54
10	0xec	-20
11	0x23	35
12	0xee	-18
13	0x10	16
14	0x7f	127
15	0x2a	42
16	0x0d	13
17	0xd9	-39
18	0x08	8
19	0x03	3
20	0x84	-124
21	0x0a	10
22	0xeb	-21
23	0xff	-1
24	0xf8	-8
25	0xf7	-9
26	0xda	-38
27	0x2a	42
28	0x0c	12
29	0x0b	11
30	0xe6	-26
31	0x33	51
32	0xe0	-32
33	0xf7	-9
34	0x56	86
35	0xcd	-51
36	0xce	-50
37	0xba	-70
38	0x25	37
39	0x21	33
40	0x02	2
41	0xe3	-29
42	0xf2	-14
43	0xe0	-32
44	0x16	22
45	0xdb	-37
46	0x15	21
47	0x18	24
48	0xe5	-27
49	0xf8	-8
50	0x08	8
51	0x24	36
52	0x01	1
53	0xda	-38
54	0xe4	-28
55	0x0b	11
56	0xf7	-9
57	0x10	16
58	0xda	-38
59	0x3a	58
60	0xc9	-55
61	0x04	4
62	0xc1	-63
63	0xfb	-5
64	0xf1	-15
65	0xea	-22
66	0x24	36
67	0x2b	43
68	0xbe	-66
69	0xc4	-60
70	0xce	-50
71	0xf1	-15
72	0xce	-50
73	0xf2	-14
74	0xb8	-72
75	0x12	18
76	0x07	7
77	0x14	20
78	0x27	39
79	0x33	51
80	0xf1	-15
81	0x14	20
82	0x09	9
83	0x03	3
84	0xa1	-95
85	0xca	-54
86	0xe2	-30
87	0xe6	-26
88	0xde	-34
89	0x25	37
90	0xd1	-47
91	0xc7	-57
92	0x28	40
93	0x07	7
94	0x01	1
95	0xff	-1
96	0x18	24
97	0xe2	-30
98	0x19	25
99	0xe4	-28
100	0xf3	-13
101	0xf5	-11
102	0xd9	-39
103	0x1c	28
104	0xc6	-58
105	0xbb	-69
106	0xe2	-30
107	0xde	-34
108	0xf9	-7
109	0xc0	-64
110	0xef	-17
111	0x44	68
112	0xbc	-68
113	0xfb	-5
114	0x22	34
115	0xd1	-47
116	0xe1	-31
117	0x0e	14
118	0xc9	-55
119	0xff	-1
120	0x2c	44
121	0xc1	-63
122	0xd5	-43
123	0xe6	-26
124	0x29	41
125	0x19	25
126	0x29	41
127	0x47	71
128	0xf5	-11
129	0x00	0
130	0x2e	46
131	0xdb	-37
132	0xeb	-21
133	0xfe	-2
134	0x90	-112
135	0x1c	28
136	0x20	32
137	0x00	0
138	0x20	32
139	0xdb	-37
140	0x22	34
141	0xe9	-23
142	0x42	66
143	0x11	17
144	0x0e	14
145	0x20	32
146	0xc0	-64
147	0xdf	-33
148	0x15	21
149	0xc2	-62
150	0x13	19
151	0xef	-17
152	0xa0	-96
153	0x2e	46
154	0xe8	-24
155	0xf3	-13
156	0xab	-85
157	0x33	51
158	0x57	87
159	0xe0	-32
160	0x2c	44
161	0x24	36
162	0xf8	-8
163	0xda	-38
164	0x43	67
165	0x0e	14
166	0x0b	11
167	0x4a	74
168	0x81	-127
169	0xf7	-9
170	0x21	33
171	0xd8	-40
172	0x0e	14
173	0x41	65
174	0x10	16
175	0xe9	-23
176	0x42	66
177	0xec	-20
178	0xda	-38
179	0x0b	11
180	0x33	51
181	0x2d	45
182	0xda	-38
183	0x21	33
184	0xab	-85
185	0x1f	31
186	0x2d	45
187	0x43	67
188	0x1e	30
189	0x20	32
190	0xbf	-65
191	0x00	0
192	0xfb	-5
193	0x09	9
194	0xf6	-10
195	0x3f	63
196	0x2b	43
197	0xbe	-66
198	0xb8	-72
199	0x22	34
200	0xb4	-76
201	0x96	-106
202	0x08	8
203	0xc4	-60
204	0xe2	-30
205	0x3e	62
206	0xd8	-40
207	0xe2	-30
208	0x3f	63
209	0xd7	-41
210	0xc0	-64
211	0xe2	-30
212	0x31	49
213	0x35	53
214	0xf4	-12
215	0xd3	-45
216	0xbe	-66
217	0x21	33
218	0xdc	-36
219	0x4a	74
220	0xc9	-55
221	0x23	35
222	0x3d	61
223	0xf3	-13
224	0x03	3
225	0xd1	-47
226	0xdb	-37
227	0x06	6
228	0x25	37
229	0x33	51
230	0x97	-105
231	0xd4	-44
232	0xe4	-28
233	0xfb	-5
234	0xf2	-14
235	0x19	25
236	0x18	24
237	0x2d	45
238	0xf5	-11
239	0xdb	-37
240	0xbe	-66
241	0xe3	-29
242	0x03	3
243	0xf6	-10
244	0x2c	44
245	0xf5	-11
246	0xda	-38
247	0xaa	-86
248	0x9d	-99
249	0x06	6
250	0x2e	46
251	0xb0	-80
252	0xd1	-47
253	0xf5	-11
254	0xf0	-16
255	0x14	20

model_14/conv2d_194/Conv2D i1 [16, 3, 3, 32]
0	0xbb	-69
1	0x01	1
2	0x1a	26
3	0x34	52
4	0xd3	-45
5	0xd0	-48
6	0x01	1
7	0x3c	60
8	0xc0	-64
9	0xf0	-16
10	0x26	38
11	0x54	84
12	0x2c	44
13	0x04	4
14	0xc8	-56
15	0x13	19
16	0xd3	-45
17	0xf9	-7
18	0x0d	13
19	0xaa	-86
20	0x35	53
21	0xe5	-27
22	0xd3	-45
23	0xe7	-25
24	0xe1	-31
25	0xeb	-21
26	0x1e	30
27	0x1d	29
28	0xee	-18
29	0x48	72
30	0xd6	-42
31	0xc4	-60
32	0xe4	-28
33	0xe7	-25
34	0x1d	29
35	0xa1	-95
36	0xbd	-67
37	0x22	34
38	0xe6	-26
39	0xcd	-51
40	0xe6	-26
41	0xf6	-10
42	0x34	52
43	0x7f	127
44	0x4f	79
45	0xea	-22
46	0xd6	-42
47	0x1c	28
48	0x07	7
49	0x1f	31
50	0xdc	-36
51	0xe5	-27
52	0x17	23
53	0xeb	-21
54	0xf8	-8
55	0xfa	-6
56	0x13	19
57	0xee	-18
58	0x0e	14
59	0xf7	-9
60	0xff	-1
61	0xfa	-6
62	0xcd	-51
63	0x08	8
64	0xe9	-23
65	0xcf	-49
66	0xf3	-13
67	0x2c	44
68	0x09	9
69	0x1b	27
70	0xf7	-9
71	0x69	105
72	0x0a	10
73	0x2e	46
74	0x09	9
75	0xf1	-15
76	0x49	73
77	0xd8	-40
78	0xa9	-87
79	0x1a	26
80	0x04	4
81	0xea	-22
82	0xbd	-67
83	0xfc	-4
84	0x34	52
85	0x08	8
86	0xca	-54
87	0xef	-17
88	0xd4	-44
89	0xce	-50
90	0xea	-22
91	0x27	39
92	0x31	49
93	0xda	-38
94	0x0e	14
95	0x17	23
96	0x2d	45
97	0x47	71
98	0x53	83
99	0xb3	-77
100	0xd7	-41
101	0xff	-1
102	0x0a	10
103	0x1a	26
104	0x84	-124
105	0x06	6
106	0x33	51
107	0x10	16
108	0xf9	-7
109	0x40	64
110	0x3c	60
111	0x1d	29
112	0x28	40
113	0x00	0
114	0xbc	-68
115	0xcd	-51
116	0x1c	28
117	0xdd	-35
118	0xdb	-37
119	0xf2	-14
120	0x3f	63
121	0x28	40
122	0x30	48
123	0x14	20
124	0xf9	-7
125	0x10	16
126	0x3f	63
127	0x19	25
128	0x23	35
129	0xcd	-51
130	0xdb	-37
131	0xa5	-91
132	0x37	55
133	0xd6	-42
134	0xcc	-52
135	0x55	85
136	0x06	6
137	0x53	83
138	0x45	69
139	0xee	-18
140	0x4c	76
141	0xe7	-25
142	0xf7	-9
143	0xe2	-30
144	0x0a	10
145	0xf5	-11
146	0xca	-54
147	0x17	23
148	0x01	1
149	0x0c	12
150	0xc0	-64
151	0xdb	-37
152	0x2c	44
153	0x09	9
154	0x12	18
155	0xde	-34
156	0xd9	-39
157	0xd3	-45
158	0x11	17
159	0x1d	29
160	0x30	48
161	0xcd	-51
162	0xfc	-4
163	0x06	6
164	0x27	39
165	0xef	-17
166	0x03	3
167	0xe2	-30
168	0xc4	-60
169	0x1e	30
170	0x14	20
171	0x3b	59
172	0x4f	79
173	0xf4	-12
174	0x22	34
175	0x0e	14
176	0xed	-19
177	0xee	-18
178	0xe9	-23
179	0x27	39
180	0xdf	-33
181	0x14	20
182	0xbf	-65
183	0xce	-50
184	0x16	22
185	0xda	-38
186	0xef	-17
187	0xf8	-8
188	0xd0	-48
189	0xd7	-41
190	0x13	19
191	0xea	-22
192	0x23	35
193	0xe3	-29
194	0xde	-34
195	0xd0	-48
196	0xdf	-33
197	0xbb	-69
198	0x03	3
199	0x1a	26
200	0x53	83
201	0xfa	-6
202	0x15	21
203	0x24	36
204	0x16	22
205	0xec	-20
206	0x07	7
207	0xf7	-9
208	0x16	22
209	0x00	0
210	0x90	-112
211	0x08	8
212	0xe4	-28
213	0x0e	14
214	0xf2	-14
215	0xf5	-11
216	0x1a	26
217	0xf4	-12
218	0x23	35
219	0xf7	-9
220	0x63	99
221	0x0d	13
222	0x39	57
223	0x38	56
224	0xce	-50
225	0xc3	-61
226	0xe6	-26
227	0x0a	10
228	0xe6	-26
229	0xaa	-86
230	0x11	17
231	0x51	81
232	0x06	6
233	0xc3	-61
234	0x56	86
235	0x66	102
236	0x3d	61
237	0xe3	-29
238	0x35	53
239	0x00	0
240	0x1e	30
241	0xfc	-4
242	0xc0	-64
243	0xe8	-24
244	0x0a	10
245	0x0e	14
246	0xc7	-57
247	0xf9	-7
248	0x28	40
249	0x86	-122
250	0xf9	-7
251	0x19	25
252	0xd0	-48
253	0xe0	-32
254	0x04	4
255	0xd2	-46

model_14/conv2d_transpose_38/conv2d_transpose i1 [16, 2, 2, 32]
0	0x15	21
1	0x3f	63
2	0x75	117
3	0xd1	-47
4	0xef	-17
5	0x9c	-100
6	0xae	-82
7	0xd9	-39
8	0x10	16
9	0xcb	-53
10	0x4f	79
11	0x3f	63
12	0x0c	12
13	0xf9	-7
14	0x07	7
15	0xd9	-39
16	0x35	53
17	0xa5	-91
18	0xc6	-58
19	0x55	85
20	0x20	32
21	0x38	56
22	0xd8	-40
23	0xbc	-68
24	0x51	81
25	0x25	37
26	0xa7	-89
27	0x52	82
28	0xd9	-39
29	0xae	-82
30	0x87	-121
31	0xe0	-32
32	0xc6	-58
33	0x95	-107
34	0x48	72
35	0xde	-34
36	0xd6	-42
37	0xa9	-87
38	0xb7	-73
39	0xed	-19
40	0x24	36
41	0x15	21
42	0x21	33
43	0xcc	-52
44	0x75	117
45	0xfc	-4
46	0xef	-17
47	0x1a	26
48	0xf5	-11
49	0xc1	-63
50	0x02	2
51	0xe5	-27
52	0xfb	-5
53	0xcb	-53
54	0x2f	47
55	0xe7	-25
56	0x61	97
57	0x02	2
58	0x41	65
59	0x14	20
60	0xed	-19
61	0x5b	91
62	0x07	7
63	0x2e	46
64	0xc5	-59
65	0x36	54
66	0xee	-18
67	0x31	49
68	0x2c	44
69	0xe4	-28
70	0xfa	-6
71	0x23	35
72	0xa8	-88
73	0xeb	-21
74	0xba	-70
75	0xa6	-90
76	0xdf	-33
77	0xfc	-4
78	0x03	3
79	0x81	-127
80	0xe7	-25
81	0xff	-1
82	0xa6	-90
83	0xc9	-55
84	0x3c	60
85	0xb7	-73
86	0x08	8
87	0x81	-127
88	0xf2	-14
89	0x59	89
90	0xdb	-37
91	0xd5	-43
92	0x94	-108
93	0xa7	-89
94	0x03	3
95	0x2a	42
96	0xe7	-25
97	0xcf	-49
98	0x68	104
99	0x06	6
100	0xc4	-60
101	0xf2	-14
102	0x48	72
103	0x10	16
104	0xd6	-42
105	0x31	49
106	0xe6	-26
107	0xa6	-90
108	0x14	20
109	0x5b	91
110	0xaa	-86
111	0xc6	-58
112	0xbb	-69
113	0x02	2
114	0xda	-38
115	0x46	70
116	0xe4	-28
117	0xd1	-47
118	0x3f	63
119	0x90	-112
120	0x2b	43
121	0x5c	92
122	0x05	5
123	0x35	53
124	0x20	32
125	0x5f	95
126	0xaf	-81
127	0xa4	-92
128	0xfa	-6
129	0xe6	-26
130	0x2e	46
131	0xdd	-35
132	0x11	17
133	0xe2	-30
134	0xe2	-30
135	0x30	48
136	0x28	40
137	0xf7	-9
138	0xfa	-6
139	0x32	50
140	0x00	0
141	0x4f	79
142	0xdf	-33
143	0x20	32
144	0xc9	-55
145	0x4b	75
146	0xe9	-23
147	0xfc	-4
148	0xfd	-3
149	0x10	16
150	0xdc	-36
151	0x34	52
152	0x2e	46
153	0xff	-1
154	0x00	0
155	0x2e	46
156	0x1c	28
157	0xe3	-29
158	0x18	24
159	0xdf	-33
160	0xde	-34
161	0x21	33
162	0x25	37
163	0x18	24
164	0xd1	-47
165	0x12	18
166	0xe4	-28
167	0xf8	-8
168	0xc3	-61
169	0x23	35
170	0x2d	45
171	0xd5	-43
172	0x2e	46
173	0x26	38
174	0x1b	27
175	0xe5	-27
176	0xda	-38
177	0x05	5
178	0xcc	-52
179	0x01	1
180	0x32	50
181	0xed	-19
182	0xe6	-26
183	0xcb	-53
184	0x23	35
185	0x28	40
186	0x21	33
187	0x27	39
188	0xc1	-63
189	0xd4	-44
190	0x00	0
191	0x11	17
192	0x7f	127
193	0xd8	-40
194	0xd9	-39
195	0xcd	-51
196	0x25	37
197	0x57	87
198	0x24	36
199	0x3c	60
200	0xd3	-45
201	0xd8	-40
202	0xe5	-27
203	0x03	3
204	0xcf	-49
205	0xe8	-24
206	0x2f	47
207	0x23	35
208	0xd9	-39
209	0x13	19
210	0x2a	42
211	0x3a	58
212	0x13	19
213	0xd1	-47
214	0xf6	-10
215	0x26	38
216	0xe6	-26
217	0xe3	-29
218	0x06	6
219	0xf3	-13
220	0xe8	-24
221	0xf6	-10
222	0x23	35
223	0xc3	-61
224	0xfc	-4
225	0x17	23
226	0x22	34
227	0x22	34
228	0x06	6
229	0xbf	-65
230	0xf6	-10
231	0x24	36
232	0x08	8
233	0x0d	13
234	0x1f	31
235	0x03	3
236	0xd2	-46
237	0x05	5
238	0x1c	28
239	0xe2	-30
240	0xee	-18
241	0xd4	-44
242	0xbb	-69
243	0xee	-18
244	0xef	-17
245	0x2f	47
246	0x0c	12
247	0xf0	-16
248	0xd9	-39
249	0x48	72
250	0xe2	-30
251	0x06	6
252	0x2f	47
253	0x49	73
254	0xd0	-48
255	0x07	7

model_14/temporal_conv_aggregator_1/conv2d_193/Conv2D_2 i1 [32, 3, 3, 32]
0	0xfb	-5
1	0x0a	10
2	0x01	1
3	0xfa	-6
4	0x28	40
5	0xfc	-4
6	0x0d	13
7	0x18	24
8	0xd8	-40
9	0x0e	14
10	0x09	9
11	0xea	-22
12	0x81	-127
13	0x02	2
14	0x18	24
15	0xf6	-10
16	0x18	24
17	0x25	37
18	0x0b	11
19	0xf4	-12
20	0x18	24
21	0xfc	-4
22	0x04	4
23	0xcd	-51
24	0xec	-20
25	0x09	9
26	0x0e	14
27	0x15	21
28	0x1e	30
29	0x1d	29
30	0xfe	-2
31	0x14	20
32	0x0f	15
33	0x19	25
34	0x02	2
35	0xe5	-27
36	0x0a	10
37	0x05	5
38	0x02	2
39	0xee	-18
40	0xf2	-14
41	0xf3	-13
42	0x01	1
43	0xf2	-14
44	0x9c	-100
45	0x10	16
46	0x07	7
47	0x03	3
48	0x01	1
49	0x30	48
50	0x14	20
51	0xff	-1
52	0xf4	-12
53	0xfb	-5
54	0xf5	-11
55	0xe4	-28
56	0xf4	-12
57	0x05	5
58	0xfa	-6
59	0x06	6
60	0xfa	-6
61	0xf3	-13
62	0xf0	-16
63	0x1c	28
64	0x01	1
65	0xff	-1
66	0x1b	27
67	0xd7	-41
68	0x11	17
69	0xf6	-10
70	0xef	-17
71	0xfd	-3
72	0xe5	-27
73	0xf7	-9
74	0xfa	-6
75	0x17	23
76	0xaf	-81
77	0xfc	-4
78	0x03	3
79	0x0c	12
80	0x07	7
81	0x05	5
82	0x0c	12
83	0x1c	28
84	0xf2	-14
85	0x17	23
86	0x06	6
87	0x03	3
88	0x08	8
89	0x0c	12
90	0xe8	-24
91	0xf7	-9
92	0x1c	28
93	0xe4	-28
94	0xc2	-62
95	0xf4	-12
96	0xf7	-9
97	0xc4	-60
98	0x15	21
99	0xdf	-33
100	0xfb	-5
101	0x12	18
102	0x00	0
103	0x14	20
104	0xec	-20
105	0x08	8
106	0x05	5
107	0xe2	-30
108	0xbe	-66
109	0xf6	-10
110	0x05	5
111	0x04	4
112	0xe8	-24
113	0xd7	-41
114	0x00	0
115	0xf0	-16
116	0x10	16
117	0x05	5
118	0xf6	-10
119	0xe0	-32
120	0xea	-22
121	0xe7	-25
122	0xef	-17
123	0x0a	10
124	0x14	20
125	0xf5	-11
126	0x1d	29
127	0xec	-20
128	0xef	-17
129	0xfe	-2
130	0x10	16
131	0xe4	-28
132	0xd4	-44
133	0x18	24
134	0xfe	-2
135	0x10	16
136	0x05	5
137	0xfd	-3
138	0x0d	13
139	0xe8	-24
140	0xd0	-48
141	0xfd	-3
142	0xfa	-6
143	0xe9	-23
144	0xf4	-12
145	0x0d	13
146	0xf2	-14
147	0x18	24
148	0x08	8
149	0x06	6
150	0x08	8
151	0xef	-17
152	0xda	-38
153	0x17	23
154	0x11	17
155	0xea	-22
156	0x11	17
157	0x02	2
158	0xdd	-35
159	0x16	22
160	0xe9	-23
161	0xec	-20
162	0x05	5
163	0x02	2
164	0xdc	-36
165	0x1d	29
166	0x02	2
167	0xee	-18
168	0xf7	-9
169	0xeb	-21
170	0x06	6
171	0xdf	-33
172	0xdb	-37
173	0x14	20
174	0x05	5
175	0x19	25
176	0xfb	-5
177	0xf7	-9
178	0xfa	-6
179	0x03	3
180	0x03	3
181	0x23	35
182	0xf9	-7
183	0xae	-82
184	0x0e	14
185	0xf9	-7
186	0x03	3
187	0xcd	-51
188	0xf8	-8
189	0xf8	-8
190	0xf2	-14
191	0x06	6
192	0xf9	-7
193	0x08	8
194	0x0e	14
195	0x1e	30
196	0xf6	-10
197	0xec	-20
198	0xf0	-16
199	0xed	-19
200	0xb3	-77
201	0xee	-18
202	0xed	-19
203	0x04	4
204	0x07	7
205	0x11	17
206	0x06	6
207	0x16	22
208	0xae	-82
209	0x32	50
210	0xf6	-10
211	0xea	-22
212	0xed	-19
213	0xff	-1
214	0xf6	-10
215	0xf9	-7
216	0xe2	-30
217	0x0c	12
218	0x03	3
219	0xa1	-95
220	0xf5	-11
221	0x0b	11
222	0xd3	-45
223	0xe8	-24
224	0x12	18
225	0xfb	-5
226	0x03	3
227	0x0e	14
228	0xf9	-7
229	0x16	22
230	0x03	3
231	0xe1	-31
232	0xf9	-7
233	0x0c	12
234	0x05	5
235	0xf5	-11
236	0x24	36
237	0x23	35
238	0x11	17
239	0xf4	-12
240	0xcb	-53
241	0x40	64
242	0x16	22
243	0xee	-18
244	0x12	18
245	0x09	9
246	0xfa	-6
247	0xf2	-14
248	0x11	17
249	0x0e	14
250	0xfa	-6
251	0xe7	-25
252	0x16	22
253	0x02	2
254	0xe6	-26
255	0x0c	12

model_14/time_distributed_108/conv2d_192/Conv2D i1 [32, 3, 3, 16]
0	0x1f	31
1	0x09	9
2	0xf5	-11
3	0xc8	-56
4	0x0d	13
5	0xe8	-24
6	0xc9	-55
7	0x62	98
8	0x8b	-117
9	0xee	-18
10	0x43	67
11	0x9f	-97
12	0xf5	-11
13	0xdc	-36
14	0x88	-120
15	0x24	36
16	0xd6	-42
17	0xf3	-13
18	0x2e	46
19	0x12	18
20	0x21	33
21	0x3c	60
22	0x10	16
23	0x4b	75
24	0xbe	-66
25	0xd7	-41
26	0xcc	-52
27	0xee	-18
28	0xef	-17
29	0x1e	30
30	0xc8	-56
31	0x43	67
32	0xe7	-25
33	0xf3	-13
34	0xa2	-94
35	0x30	48
36	0x29	41
37	0xfc	-4
38	0xee	-18
39	0xeb	-21
40	0xbd	-67
41	0xfa	-6
42	0x35	53
43	0xb3	-77
44	0x05	5
45	0x0e	14
46	0x31	49
47	0x25	37
48	0x15	21
49	0x4f	79
50	0xfc	-4
51	0x16	22
52	0x15	21
53	0xd4	-44
54	0xb2	-78
55	0x33	51
56	0x08	8
57	0xeb	-21
58	0x39	57
59	0xf8	-8
60	0xee	-18
61	0xb7	-73
62	0x21	33
63	0xc1	-63
64	0x04	4
65	0x34	52
66	0xfb	-5
67	0x0e	14
68	0xa9	-87
69	0xf8	-8
70	0x17	23
71	0xc9	-55
72	0x3b	59
73	0x16	22
74	0xd4	-44
75	0x19	25
76	0x28	40
77	0x8f	-113
78	0xd7	-41
79	0xc7	-57
80	0x98	-104
81	0xae	-82
82	0x42	66
83	0x03	3
84	0x07	7
85	0xf3	-13
86	0x26	38
87	0x26	38
88	0x66	102
89	0xba	-70
90	0x3e	62
91	0x0d	13
92	0x14	20
93	0xbc	-68
94	0xf8	-8
95	0xcf	-49
96	0x35	53
97	0x4d	77
98	0x54	84
99	0x2b	43
100	0xc3	-61
101	0xb5	-75
102	0x34	52
103	0x56	86
104	0xdc	-36
105	0x81	-127
106	0xfb	-5
107	0x4a	74
108	0xa5	-91
109	0x02	2
110	0x06	6
111	0x35	53
112	0xd8	-40
113	0x1f	31
114	0xed	-19
115	0x37	55
116	0x01	1
117	0xe3	-29
118	0x20	32
119	0x06	6
120	0x18	24
121	0xf5	-11
122	0xb6	-74
123	0xe9	-23
124	0x27	39
125	0xbd	-67
126	0x03	3
127	0xe8	-24
128	0x2e	46
129	0x3a	58
130	0x41	65
131	0xe1	-31
132	0xd6	-42
133	0x2e	46
134	0x45	69
135	0x21	33
136	0x13	19
137	0x10	16
138	0x25	37
139	0x92	-110
140	0xf6	-10
141	0x9b	-101
142	0xc1	-63
143	0xe8	-24
144	0xb6	-74
145	0x3f	63
146	0xef	-17
147	0x46	70
148	0x2b	43
149	0xab	-85
150	0x04	4
151	0xcc	-52
152	0xf2	-14
153	0x3f	63
154	0xee	-18
155	0x01	1
156	0xe6	-26
157	0x33	51
158	0xec	-20
159	0xd1	-47
160	0xe0	-32
161	0xf5	-11
162	0x34	52
163	0x1c	28
164	0x3d	61
165	0xd7	-41
166	0x11	17
167	0xf5	-11
168	0xc2	-62
169	0xec	-20
170	0xb2	-78
171	0xc6	-58
172	0xc5	-59
173	0x7f	127
174	0x45	69
175	0xc1	-63
176	0xde	-34
177	0x02	2
178	0xea	-22
179	0x1a	26
180	0xea	-22
181	0xce	-50
182	0x20	32
183	0x05	5
184	0x0e	14
185	0x11	17
186	0xec	-20
187	0x98	-104
188	0xf5	-11
189	0x08	8
190	0x0c	12
191	0xfd	-3
192	0xe3	-29
193	0xee	-18
194	0xf5	-11
195	0x13	19
196	0xd8	-40
197	0xbf	-65
198	0x27	39
199	0x12	18
200	0xee	-18
201	0xfb	-5
202	0x03	3
203	0x01	1
204	0xcc	-52
205	0xed	-19
206	0x09	9
207	0xef	-17
208	0x0e	14
209	0xf9	-7
210	0x0e	14
211	0xee	-18
212	0xfa	-6
213	0xcf	-49
214	0x33	51
215	0xf9	-7
216	0x07	7
217	0x06	6
218	0xf2	-14
219	0xd6	-42
220	0xcf	-49
221	0xfa	-6
222	0x43	67
223	0x4f	79
224	0x40	64
225	0x09	9
226	0x3b	59
227	0x3a	58
228	0x0e	14
229	0xd7	-41
230	0x0e	14
231	0xef	-17
232	0x07	7
233	0x09	9
234	0xdf	-33
235	0x1d	29
236	0xe4	-28
237	0x32	50
238	0x06	6
239	0x0e	14
240	0x3c	60
241	0xb2	-78
242	0x12	18
243	0x86	-122
244	0xad	-83
245	0xd4	-44
246	0xec	-20
247	0xe7	-25
248	0xff	-1
249	0x28	40
250	0xa9	-87
251	0xd9	-39
252	0xf8	-8
253	0x1d	29
254	0x3e	62
255	0xfb	-5

model_14/time_distributed_106/conv2d_191/Conv2D i1 [16, 3, 3, 16]
0	0x07	7
1	0xf7	-9
2	0xac	-84
3	0xca	-54
4	0x2c	44
5	0x25	37
6	0x18	24
7	0x2a	42
8	0xc0	-64
9	0x31	49
10	0xd0	-48
11	0x1e	30
12	0xc7	-57
13	0x22	34
14	0xf6	-10
15	0xec	-20
16	0x16	22
17	0x02	2
18	0x4e	78
19	0xff	-1
20	0x17	23
21	0xf4	-12
22	0xcc	-52
23	0xf3	-13
24	0xf1	-15
25	0xfa	-6
26	0xdb	-37
27	0x17	23
28	0x1a	26
29	0x22	34
30	0xff	-1
31	0x1e	30
32	0x0f	15
33	0xf4	-12
34	0x0a	10
35	0x1b	27
36	0x11	17
37	0x02	2
38	0xcc	-52
39	0x06	6
40	0xdc	-36
41	0xf2	-14
42	0xe6	-26
43	0xe9	-23
44	0x21	33
45	0xe6	-26
46	0x2d	45
47	0xce	-50
48	0x16	22
49	0x1c	28
50	0xf2	-14
51	0xf2	-14
52	0xe3	-29
53	0xfc	-4
54	0x19	25
55	0xe8	-24
56	0xdc	-36
57	0x39	57
58	0x1c	28
59	0x0a	10
60	0x12	18
61	0x12	18
62	0x7f	127
63	0xad	-83
64	0x20	32
65	0x3a	58
66	0xcc	-52
67	0xcd	-51
68	0xf3	-13
69	0xe0	-32
70	0x2c	44
71	0x18	24
72	0xda	-38
73	0xe1	-31
74	0x1d	29
75	0xc9	-55
76	0x1e	30
77	0x0c	12
78	0x72	114
79	0x17	23
80	0xcf	-49
81	0x32	50
82	0xee	-18
83	0xb5	-75
84	0x2f	47
85	0x46	70
86	0x38	56
87	0x1a	26
88	0x05	5
89	0xfa	-6
90	0x1d	29
91	0xcf	-49
92	0xe1	-31
93	0x1d	29
94	0x0d	13
95	0x34	52
96	0x46	70
97	0x4a	74
98	0xf7	-9
99	0x1d	29
100	0x0c	12
101	0x13	19
102	0x0e	14
103	0x27	39
104	0x35	53
105	0x2f	47
106	0x07	7
107	0x28	40
108	0x9e	-98
109	0x0a	10
110	0x16	22
111	0xf7	-9
112	0x1b	27
113	0xf9	-7
114	0x32	50
115	0xee	-18
116	0x2d	45
117	0x2d	45
118	0x09	9
119	0x14	20
120	0xde	-34
121	0x1a	26
122	0x12	18
123	0x04	4
124	0xf9	-7
125	0xf9	-7
126	0xde	-34
127	0x0f	15
128	0xfa	-6
129	0x2d	45
130	0xfb	-5
131	0xd8	-40
132	0x0d	13
133	0x30	48
134	0xf2	-14
135	0xf0	-16
136	0xdf	-33
137	0xbb	-69
138	0xed	-19
139	0xf4	-12
140	0x0a	10
141	0x01	1
142	0x0b	11
143	0xde	-34
144	0x2d	45
145	0x29	41
146	0xfd	-3
147	0xf7	-9
148	0x09	9
149	0x0b	11
150	0x5f	95
151	0x20	32
152	0x10	16
153	0x95	-107
154	0x06	6
155	0xfd	-3
156	0xdf	-33
157	0x2c	44
158	0x05	5
159	0x1e	30
160	0x19	25
161	0xeb	-21
162	0x23	35
163	0xf1	-15
164	0xf5	-11
165	0x1a	26
166	0xe4	-28
167	0xf8	-8
168	0xf3	-13
169	0xab	-85
170	0xe6	-26
171	0x40	64
172	0xa3	-93
173	0xe0	-32
174	0xdf	-33
175	0xe5	-27
176	0xfb	-5
177	0x37	55
178	0xf2	-14
179	0x1e	30
180	0x21	33
181	0xdb	-37
182	0xaf	-81
183	0xec	-20
184	0x0c	12
185	0xea	-22
186	0xca	-54
187	0x2c	44
188	0xe9	-23
189	0x19	25
190	0xc1	-63
191	0x17	23
192	0xc9	-55
193	0xd6	-42
194	0x34	52
195	0xee	-18
196	0xe5	-27
197	0x1a	26
198	0xc5	-59
199	0x29	41
200	0x0f	15
201	0xe6	-26
202	0xdd	-35
203	0x0b	11
204	0xca	-54
205	0xd7	-41
206	0x5e	94
207	0x2d	45
208	0x0f	15
209	0xc2	-62
210	0x32	50
211	0x0e	14
212	0xc7	-57
213	0xc2	-62
214	0xbb	-69
215	0x05	5
216	0xd3	-45
217	0x07	7
218	0xaa	-86
219	0xde	-34
220	0x7b	123
221	0xbf	-65
222	0xdc	-36
223	0xfa	-6
224	0xeb	-21
225	0x18	24
226	0x5a	90
227	0xa8	-88
228	0xe6	-26
229	0xd0	-48
230	0xc3	-61
231	0x23	35
232	0xa1	-95
233	0xec	-20
234	0xb4	-76
235	0x12	18
236	0x17	23
237	0xde	-34
238	0x7c	124
239	0xea	-22
240	0xc4	-60
241	0xed	-19
242	0x2f	47
243	0x0b	11
244	0xfb	-5
245	0x05	5
246	0xca	-54
247	0x08	8
248	0x33	51
249	0xc1	-63
250	0x07	7
251	0x1f	31
252	0x24	36
253	0xe2	-30
254	0x41	65
255	0x03	3

model_14/time_distributed_104/conv2d_190/Conv2D i1 [16, 3, 3, 8]
0	0xc3	-61
1	0x0c	12
2	0x21	33
3	0x22	34
4	0x05	5
5	0x07	7
6	0x2e	46
7	0x18	24
8	0x01	1
9	0x39	57
10	0x1d	29
11	0xd1	-47
12	0x11	17
13	0x1b	27
14	0xf9	-7
15	0x0a	10
16	0xde	-34
17	0x22	34
18	0xd4	-44
19	0xe3	-29
20	0x31	49
21	0x34	52
22	0x15	21
23	0x25	37
24	0xb8	-72
25	0xce	-50
26	0x17	23
27	0x36	54
28	0x01	1
29	0x08	8
30	0x2d	45
31	0xf2	-14
32	0xb8	-72
33	0x15	21
34	0xc6	-58
35	0xbc	-68
36	0xd8	-40
37	0xcc	-52
38	0x55	85
39	0x20	32
40	0xde	-34
41	0xe8	-24
42	0x1d	29
43	0xee	-18
44	0x2c	44
45	0xf0	-16
46	0x1e	30
47	0xe7	-25
48	0x81	-127
49	0xf7	-9
50	0xc8	-56
51	0xc3	-61
52	0x37	55
53	0x29	41
54	0xd9	-39
55	0x27	39
56	0x97	-105
57	0xfb	-5
58	0xf8	-8
59	0xc2	-62
60	0x3a	58
61	0xd1	-47
62	0x1c	28
63	0xc2	-62
64	0xfd	-3
65	0x1a	26
66	0x2c	44
67	0x03	3
68	0xda	-38
69	0xff	-1
70	0x1e	30
71	0x17	23
72	0xcd	-51
73	0x11	17
74	0x0c	12
75	0x9e	-98
76	0x26	38
77	0xda	-38
78	0xdd	-35
79	0x0c	12
80	0xe3	-29
81	0x28	40
82	0xe5	-27
83	0xea	-22
84	0x44	68
85	0xdc	-36
86	0xed	-19
87	0x08	8
88	0xfd	-3
89	0x36	54
90	0xe9	-23
91	0xe5	-27
92	0x03	3
93	0xd7	-41
94	0x16	22
95	0x33	51
96	0xfe	-2
97	0x06	6
98	0xf6	-10
99	0xea	-22
100	0x11	17
101	0xa6	-90
102	0x4b	75
103	0xcf	-49
104	0xd5	-43
105	0x40	64
106	0x25	37
107	0x14	20
108	0x1c	28
109	0xbc	-68
110	0x53	83
111	0x21	33
112	0x2a	42
113	0xf8	-8
114	0xcd	-51
115	0x5b	91
116	0xde	-34
117	0x12	18
118	0x4a	74
119	0xc3	-61
120	0x22	34
121	0xe8	-24
122	0xf2	-14
123	0x25	37
124	0xbd	-67
125	0x0e	14
126	0x54	84
127	0x0b	11
128	0xdc	-36
129	0x48	72
130	0xf1	-15
131	0xe6	-26
132	0x50	80
133	0x1d	29
134	0x7f	127
135	0xb4	-76
136	0x31	49
137	0xde	-34
138	0x13	19
139	0x00	0
140	0x02	2
141	0xe3	-29
142	0x37	55
143	0xe2	-30
144	0x05	5
145	0x01	1
146	0xd2	-46
147	0xc7	-57
148	0x05	5
149	0x11	17
150	0x81	-127
151	0x00	0
152	0x1e	30
153	0xb4	-76
154	0x24	36
155	0xca	-54
156	0x23	35
157	0x27	39
158	0xb9	-71
159	0xcb	-53
160	0x16	22
161	0x27	39
162	0x3a	58
163	0xf0	-16
164	0x13	19
165	0xf7	-9
166	0xb2	-78
167	0x35	53
168	0x3c	60
169	0x20	32
170	0xd5	-43
171	0xa3	-93
172	0x3e	62
173	0xfa	-6
174	0x24	36
175	0xcd	-51
176	0x1c	28
177	0x38	56
178	0x00	0
179	0xbb	-69
180	0xe9	-23
181	0x0a	10
182	0x0c	12
183	0xc6	-58
184	0x01	1
185	0xf4	-12
186	0xd5	-43
187	0x14	20
188	0x08	8
189	0x47	71
190	0x16	22
191	0x95	-107
192	0xd8	-40
193	0xd8	-40
194	0x36	54
195	0xdb	-37
196	0x3f	63
197	0xeb	-21
198	0xfb	-5
199	0xea	-22
200	0x1c	28
201	0xdc	-36
202	0xd3	-45
203	0xab	-85
204	0xf3	-13
205	0xdc	-36
206	0x18	24
207	0x1b	27
208	0xea	-22
209	0x19	25
210	0xd3	-45
211	0x11	17
212	0x28	40
213	0xff	-1
214	0xfc	-4
215	0xfb	-5
216	0xca	-54
217	0x1d	29
218	0x1b	27
219	0x41	65
220	0x03	3
221	0xda	-38
222	0x46	70
223	0x1b	27
224	0xd4	-44
225	0x1b	27
226	0x1d	29
227	0x17	23
228	0xc6	-58
229	0xd2	-46
230	0xe3	-29
231	0x37	55
232	0xd6	-42
233	0xf9	-7
234	0x12	18
235	0x26	38
236	0xdc	-36
237	0xfc	-4
238	0x10	16
239	0xd6	-42
240	0x05	5
241	0xf4	-12
242	0xca	-54
243	0xf9	-7
244	0xd9	-39
245	0xe3	-29
246	0x44	68
247	0xe8	-24
248	0xe9	-23
249	0x37	55
250	0xed	-19
251	0x09	9
252	0xf5	-11
253	0x1f	31
254	0xfa	-6
255	0xf4	-12

model_14/time_distributed_102/conv2d_189/Conv2D i1 [8, 3, 3, 8]
0	0xdc	-36
1	0x2a	42
2	0x23	35
3	0x64	100
4	0xe7	-25
5	0x0c	12
6	0x40	64
7	0x13	19
8	0xd6	-42
9	0xd5	-43
10	0x48	72
11	0x5e	94
12	0xf4	-12
13	0xea	-22
14	0xf4	-12
15	0xe0	-32
16	0xdc	-36
17	0xc9	-55
18	0xdd	-35
19	0x3b	59
20	0xec	-20
21	0x30	48
22	0x3a	58
23	0x1a	26
24	0x20	32
25	0x2f	47
26	0xfa	-6
27	0x6e	110
28	0xfb	-5
29	0xe6	-26
30	0xe6	-26
31	0x29	41
32	0xfa	-6
33	0x04	4
34	0x13	19
35	0x7f	127
36	0x0a	10
37	0xcf	-49
38	0xd5	-43
39	0x11	17
40	0xfd	-3
41	0x15	21
42	0x3b	59
43	0x41	65
44	0xcf	-49
45	0xf2	-14
46	0xf9	-7
47	0xe5	-27
48	0xf2	-14
49	0x33	51
50	0xc7	-57
51	0x1f	31
52	0xe0	-32
53	0xee	-18
54	0xed	-19
55	0xf9	-7
56	0x12	18
57	0xfd	-3
58	0xdb	-37
59	0x09	9
60	0xf8	-8
61	0xc8	-56
62	0x01	1
63	0x24	36
64	0xd7	-41
65	0x11	17
66	0x01	1
67	0x1a	26
68	0x16	22
69	0x03	3
70	0xbb	-69
71	0x34	52
72	0x5b	91
73	0x39	57
74	0x4e	78
75	0xfa	-6
76	0xd9	-39
77	0x1b	27
78	0x67	103
79	0x26	38
80	0x51	81
81	0x23	35
82	0xd2	-46
83	0xf5	-11
84	0x2b	43
85	0xc2	-62
86	0xeb	-21
87	0x1b	27
88	0x07	7
89	0xcf	-49
90	0xee	-18
91	0x10	16
92	0xbe	-66
93	0xb5	-75
94	0xe4	-28
95	0xee	-18
96	0x1f	31
97	0xbd	-67
98	0x1e	30
99	0x02	2
100	0x23	35
101	0x2c	44
102	0xbe	-66
103	0xd7	-41
104	0xfe	-2
105	0xfc	-4
106	0x17	23
107	0xbb	-69
108	0xfe	-2
109	0xde	-34
110	0x46	70
111	0xc5	-59
112	0xbe	-66
113	0xb6	-74
114	0x39	57
115	0x96	-106
116	0xa5	-91
117	0xf6	-10
118	0xde	-34
119	0xd3	-45
120	0x1c	28
121	0x58	88
122	0x81	-127
123	0xf0	-16
124	0xbc	-68
125	0x48	72
126	0xb2	-78
127	0xe0	-32
128	0xa0	-96
129	0x69	105
130	0xed	-19
131	0xb7	-73
132	0x44	68
133	0x0d	13
134	0xed	-19
135	0xb5	-75
136	0x02	2
137	0x02	2
138	0xde	-34
139	0x19	25
140	0x10	16
141	0xf7	-9
142	0xef	-17
143	0x1a	26
144	0xc9	-55
145	0x4c	76
146	0xfc	-4
147	0x03	3
148	0x49	73
149	0xcf	-49
150	0x2f	47
151	0xe0	-32
152	0xbb	-69
153	0x3d	61
154	0x05	5
155	0xfd	-3
156	0x40	64
157	0x96	-106
158	0xff	-1
159	0x5b	91
160	0xa2	-94
161	0xa5	-91
162	0x13	19
163	0x57	87
164	0x0e	14
165	0x81	-127
166	0xaf	-81
167	0x5c	92
168	0x3b	59
169	0xd1	-47
170	0xf0	-16
171	0xf1	-15
172	0xfe	-2
173	0xda	-38
174	0xc6	-58
175	0x21	33
176	0xee	-18
177	0x02	2
178	0xb6	-74
179	0x17	23
180	0x31	49
181	0x8c	-116
182	0x9e	-98
183	0x54	84
184	0xd2	-46
185	0x2d	45
186	0xd2	-46
187	0x0f	15
188	0xba	-70
189	0x0c	12
190	0x13	19
191	0xd4	-44
192	0x21	33
193	0x2d	45
194	0xd4	-44
195	0xcc	-52
196	0xdd	-35
197	0xbf	-65
198	0x2d	45
199	0xd5	-43
200	0xf2	-14
201	0x43	67
202	0x13	19
203	0x0e	14
204	0x46	70
205	0x0a	10
206	0xaa	-86
207	0x1a	26
208	0x42	66
209	0x1c	28
210	0x21	33
211	0xfc	-4
212	0x33	51
213	0xe3	-29
214	0x04	4
215	0xb1	-79
216	0xca	-54
217	0x16	22
218	0x32	50
219	0xf3	-13
220	0xdf	-33
221	0x20	32
222	0x02	2
223	0xe6	-26
224	0x18	24
225	0x01	1
226	0x60	96
227	0x3c	60
228	0x0c	12
229	0x49	73
230	0x6e	110
231	0xce	-50
232	0x2c	44
233	0xfb	-5
234	0x19	25
235	0x0d	13
236	0xd1	-47
237	0x31	49
238	0x75	117
239	0x24	36
240	0xec	-20
241	0xe7	-25
242	0x00	0
243	0xec	-20
244	0xf8	-8
245	0x3a	58
246	0xfb	-5
247	0x0f	15
248	0xde	-34
249	0xf9	-7
250	0x5e	94
251	0xe2	-30
252	0xc6	-58
253	0x7f	127
254	0x2f	47
255	0x0c	12

model_14/time_distributed_100/conv2d_188/Conv2D i1 [8, 3, 3, 1]
0	0xf3	-13
1	0xd5	-43
2	0x02	2
3	0xff	-1
4	0xec	-20
5	0xf6	-10
6	0x81	-127
7	0xf5	-11
8	0x12	18
9	0x0a	10
10	0x1e	30
11	0x81	-127
12	0x5e	94
13	0x2d	45
14	0xf7	-9
15	0x69	105
16	0x75	117
17	0x8c	-116
18	0x95	-107
19	0xa1	-95
20	0x33	51
21	0xd0	-48
22	0x92	-110
23	0xee	-18
24	0x0d	13
25	0xee	-18
26	0x81	-127
27	0x43	67
28	0xb8	-72
29	0x25	37
30	0xbd	-67
31	0xe6	-26
32	0x97	-105
33	0xe3	-29
34	0x7f	127
35	0x3f	63
36	0x3c	60
37	0x58	88
38	0x99	-103
39	0x7f	127
40	0x9c	-100
41	0x51	81
42	0x36	54
43	0xdc	-36
44	0x3a	58
45	0x81	-127
46	0xe0	-32
47	0xfa	-6
48	0xd9	-39
49	0x40	64
50	0xdb	-37
51	0x34	52
52	0xaa	-86
53	0x58	88
54	0xde	-34
55	0x2c	44
56	0xf7	-9
57	0xf8	-8
58	0x07	7
59	0x06	6
60	0xa8	-88
61	0x38	56
62	0x81	-127
63	0x10	16
64	0x4b	75
65	0xcf	-49
66	0x7f	127
67	0x1d	29
68	0x50	80
69	0xc6	-58
70	0xe7	-25
71	0xc1	-63
